FCB.pth (torch, 366865 bytes, 18 tensors)

input.0.weight f4 [16, 3, 1, 1, 1]
0.529883 -0.12903751 0.68004435 0.38309926 -0.08181432 0.39676315 0.04987721 -0.09350293
-0.34766042 0.28825316 0.44405463 0.201162 0.3096315 0.25282302 0.005743237 -0.4739032
-0.3974011 0.004735559 -0.32145524 0.471849 0.31221578 0.14212005 -0.101941004 -0.40448862
-0.4535905 0.14678971 -0.6331212 -0.43017155 0.058192097 -0.44553685 0.33294854 -0.49701956
-0.32921875 -0.04611319 0.27452946 -0.24010925 0.05560148 -0.42692807 0.30897707 -0.36928284
-0.6150774 -0.3081192 -0.29855928 0.07682095 0.18020377 0.22955756 -0.36622444 -0.032887146
00000000: 6aa6 073f 6922 04be 6317 2e3f 9625 c43e
00000010: 448e a7bd 8a24 cb3e 0c4c 4c3d 777e bfbd
00000020: 8c00 b2be eb95 933e 215b e33e 69fd 4d3e
00000030: 0588 9e3e 0572 813e c431 bc3b 71a3 f2be
00000040: 2878 cbbe c02c 9b3b c895 a4be 3196 f13e
00000050: bfda 9f3e eb87 113e 72c6 d0bd 2219 cfbe
00000060: 043d e8be 0b50 163e 3b14 22bf 723f dcbe
00000070: d65a 6e3d 681d e4be 3b78 aa3e 5979 febe
00000080: 5c8f a8be 2fe1 3cbd 208f 8c3e 33df 75be
00000090: 61be 633d 5196 dabe 3e32 9e3e a412 bdbe
000000a0: b675 1dbf cdc1 9dbe c3dc 98be 4d54 9d3d
000000b0: 5687 383e 2311 6b3e c581 bbbe acb4 06bd

input.0.bias f4 [16]
0.23274678 -0.19944397 0.47704887 -0.03380061 -0.16733867 0.25431058 -0.07000126 -0.63019854
-0.2444654 0.004643976 0.045013763 0.24824025 -0.3416098 0.14686887 0.6009507 0.09614784
00000000: 2c55 6e3e 0a3b 4cbe c03f f43e 8272 0abd
00000010: d45a 2bbe ff34 823e d25c 8fbd b154 21bf
00000020: 2355 7abe 7f2c 983b 5a60 383d b132 7e3e
00000030: 7be7 aebe cb64 163e e8d7 193f 29e9 c43d

conv5.0.weight f4 [16, 16, 5, 5, 5]
-0.04497337 -0.006871045 -0.013193254 -0.0026284927 -0.050351966 -0.039551113 -0.0028347492 0.028138727
0.010592244 -0.0013943018 -0.017080793 -0.01900116 -0.004246078 0.037721485 0.014766976 -0.013529895
-0.02501268 0.0029783377 0.033013336 -0.023721803 -0.0054393904 0.009720293 0.0058775367 -0.031174818
-0.036807254 -0.005906547 -0.016368164 0.03140416 -0.006997324 -0.045258168 -0.024163468 0.04007934
0.039770417 0.027308911 -0.00026879495 -0.030566346 0.016304145 0.074548036 0.06559411 -0.012488822
-0.0028070007 0.020616109 0.04064838 0.0006083797 0.008580526 -0.019655041 0.002764984 -0.025846366
-0.0032199377 -0.016535167 -0.0013352885 -0.0062212874 0.027255002 0.015730644 -0.00880359 0.0066244886
-0.0042628297 0.0150027545 0.03070098 -0.00685245 -0.011917247 0.028681763 0.019333169 0.038706426
-0.002129988 -0.01244339 -0.015059996 -0.013103013 0.012180831 -0.00196072 -0.015703112 -0.0039513474
-0.00922913 0.021560777 0.022618541 -0.03824973 -0.013419187 -0.008577371 -0.03056432 0.014181071
-0.00592275 -0.02908692 -0.05625572 -0.023881355 -0.03105396 -0.0449766 -0.04791693 -0.06858315
-0.05807648 0.000581056 -0.023253905 -0.06682985 -0.03472868 -0.028262485 0.012187553 -0.010451237
-0.031075595 -0.03627428 0.0067544375 0.002003704 -0.020478148 -0.016749276 -0.017086204 -0.006796158
0.014918597 -0.02361126 -0.05008009 -0.038898837 -0.044450738 0.018699616 -0.023976175 -0.05238342
-0.043303598 -0.013531255 0.0059811906 -0.016789416 -0.07291147 -0.024211776 -0.015607975 -0.010097102
0.0050572944 -0.031499933 -0.019836854 0.006180096 0.017848214 -0.002203845 0.0013676153 -0.02100496
-0.00093165494 -0.038402934 -0.027969297 -0.015232646 0.015171218 0.007373852 -0.008353724 0.012170548
0.015187073 0.031208044 0.026540607 0.013721273 0.0018045915 0.002557063 0.0018583691 -0.0012817737
-0.030859841 0.015553579 0.0032494676 -0.010487292 0.007934104 -0.042755347 -0.039484013 -0.01626179
0.017814979 0.021761538 -0.013539362 -0.028596316 -0.005838833 0.035366166 0.0082251765 -0.02342987
-0.021916268 -0.0058852835 0.054019526 0.045049015 -0.014109836 0.019191489 0.0107116625 0.03774423
0.029788744 0.0069244364 -0.011857765 0.022067463 -0.015868997 0.007650359 -0.010345177 -0.008859837
0.00564446 0.0005085286 0.024482843 0.005686118 0.020546556 -0.012543606 0.005981613 0.011005522
-0.015798327 0.018633198 0.030546026 0.04726062 0.042786684 -0.0069451877 0.03447825 0.021223156
0.042749096 0.009434087 0.003163859 0.0068607274 0.020453887 0.031720206 0.009461205 0.013558995
0.0058858995 0.002909055 -0.0052684187 0.007034329 0.004164403 0.010107712 0.0028425292 0.010247799
-0.001029415 0.015750146 0.004906059 -0.010349178 0.0068611642 0.008410546 -0.018337255 0.014925509
-0.0068612383 0.0028942663 0.005452847 -0.0009254225 0.0184692 0.005892864 -0.0015438423 -0.00043861356
0.0058719194 0.0152732255 -0.012964187 0.0187687 0.029019866 0.017694829 0.0038717473 -0.010449148
-0.0064703994 0.0263048 0.010047647 -0.00781587 -0.0022646862 -0.0014431104 0.02495848 0.036202703
0.013668392 0.0073998743 -0.012886666 0.001181292 0.0068336953 0.05185849 0.026105361 0.03457346
0.0050093154 0.023076255 0.029035185 0.014722891 -0.019505298 -0.007780903 0.006518748 0.02462524
00000000: ff35 38bd 8126 e1bb 8528 58bc ca42 2cbb
00000010: dd3d 4ebd 5900 22bd 33c7 39bb 3083 e63c
00000020: 178b 2d3c 01c1 b6ba 05ed 8bbc 52a8 9bbc
00000030: af22 8bbb d881 1a3d 30f1 713c 7eac 5dbc
00000040: 64e7 ccbc 3730 433b fe38 073d 3a54 c2bc
00000050: ea3c b2bb dd41 1f3c 5a98 c03b 5562 ffbc
00000060: 34c3 16bd b58b c1bb 8716 86bc a6a1 003d
00000070: cf49 e5bb a160 39bd 77f2 c5bc 3c2a 243d
00000080: 4ee6 223d f0b6 df3c 0ced 8cb9 4666 fabc
00000090: 4590 853c a4ac 983d 3456 863d eb9d 4cbc
000000a0: a8f5 37bb 1de3 a83c ea7e 263d ac7b 1f3a
000000b0: 5695 0c3c 9c03 a1bc bc34 353b c2bb d3bc
000000c0: 9705 53bb c274 87bc d904 afba f1db cbbb
000000d0: e245 df3c 8ddd 803c ef3c 10bc 3d12 d93b
000000e0: 35af 8bbb 1dce 753c 9f80 fb3c 848a e0bb
000000f0: 8f40 43bc 04f6 ea3c 9860 9e3c a18a 1e3d
00000100: 4597 0bbb 5cdf 4bbc 34be 76bc 05ae 56bc
00000110: 1c92 473c 6c7f 00bb d0a3 80bc 4e7a 81bb
00000120: c735 17bc 3aa0 b03c 854a b93c c0ab 1cbd
00000130: 26dc 5bbc 1a88 0cbc 0662 fabc b957 683c
00000140: a113 c2bb b147 eebc 666c 66bd d5a2 c3bc
00000150: e064 febc 6239 38bd 8b44 44bd 5375 8cbd
00000160: 9ae1 6dbd 0252 183a f97e bebc 17de 88bd
00000170: a93f 0ebd ba86 e7bc 4dae 473c aa3b 2bbc
00000180: 3f92 febc 5794 14bd 5454 dd3b 9350 033b
00000190: cac1 a7bc c735 89bc 5ef8 8bbc 4eb2 debb
000001a0: 226d 743c 676c c1bc c820 4dbd 6354 1fbd
000001b0: fa11 36bd f02f 993c af69 c4bc ff8f 56bd
000001c0: 1d5f 31bd 32b2 5dbc ddfd c33b f589 89bc
000001d0: 9c52 95bd c657 c6bc 98b8 7fbc 516e 25bc
000001e0: a9b7 a53b 1306 01bd e680 a2bc 6782 ca3b
000001f0: 6b36 923c 626e 10bb 8e41 b33a 9812 acbc
00000200: 4e3a 74ba 654c 1dbd de1f e5bc 5992 79bc
00000210: b390 783c 5ba0 f13b 0fde 08bc fa66 473c
00000220: 33d3 783c 03a8 ff3c b06b d93c 31cf 603c
00000230: 0b88 ec3a 6694 273b 8594 f33a 3001 a8ba
00000240: c7cd fcbc 70d4 7e3c 05f5 543b e4d2 2bbc
00000250: 0bfe 013c 3b20 2fbd fdb9 21bd 7237 85bc
00000260: b8f0 913c 4145 b23c 33d4 5dbc d242 eabc
00000270: ae53 bfbb 1ddc 103d e4c2 063c 00f0 bfbc
00000280: bf89 b3bc 56d9 c0bb 9443 5d3d 5185 383d
00000290: f12c 67bc 7837 9d3c f87f 2f3c b299 1a3d
000002a0: 8607 f43c 62e6 e23b 1247 42bc d3c6 b43c
000002b0: b3ff 81bc ddaf fa3b d17e 29bc da28 11bc
000002c0: 2af5 b83b c74e 053a 3e90 c83c 9d52 ba3b
000002d0: 4051 a83c b283 4dbc 6801 c43b 8150 343c
000002e0: 7e6b 81bc a6a4 983c a93b fa3c 5a94 413d
000002f0: 1741 2f3d 7594 e3bb 1139 0d3d 2fdc ad3c
00000300: ad19 2f3d 6e91 1a3c bf58 4f3b f4cf e03b
00000310: e98e a73c 0ced 013d 2c03 1b3c 8c26 5e3c
00000320: 81de c03b d8a5 3e3b b3a2 acbb 3b80 e63b
00000330: 8b75 883b d19a 253c ba49 3a3b 62e6 273c
00000340: 70ed 86ba 7306 813c 01c3 a03b 998f 29bc
00000350: 9ed3 e03b 63cc 093c 0338 96bc 1f8a 743c
00000360: 3dd4 e0bb bbad 3d3b ccad b23b 0d98 72ba
00000370: b84c 973c ed18 c13b c05a caba b7f5 e5b9
00000380: 3b69 c03b 8d3c 7a3c be67 54bc d1c0 993c
00000390: 12bb ed3c bff4 903c 24bd 7d3b e732 2bbc
000003a0: a505 d4bb 2a7d d73c e39e 243c 230e 00bc
000003b0: 216b 14bb c026 bdba ba75 cc3c 4949 143d
000003c0: 64f1 5f3c a57a f23b 9822 53bc 95d5 9a3a
000003d0: 31ed df3b 9169 543d e9da d53c e79c 0d3d
000003e0: 2f25 a43b 6a0a bd3c 32db ed3c 4838 713c
000003f0: 93c9 9fbc f2f6 febb 399b d53b dfba c93c

conv5.0.bias f4 [16]
-0.062353548 -0.027319523 0.0056096045 0.07560381 0.013988208 0.03460465 0.04346409 0.021284508
-0.044793587 0.049374957 0.018192684 0.06892678 -0.018150609 -0.04256231 -0.016237115 -0.056149695
00000000: 6f66 7fbd 31cd dfbc c6d0 b73b 2cd6 9a3d
00000010: cc2e 653c 9bbd 0d3d 6707 323d d95c ae3c
00000020: 7b79 37bd 653d 4a3d d308 953c 7c29 8d3d
00000030: 96b0 94bc d155 2ebd b303 85bc 39fd 65bd

conv5_1.0.weight f4 [32, 16, 3, 3, 3]
-0.007132635 -0.01814567 0.0037711519 0.0074421787 0.01176011 0.010393381 -0.016035356 -0.022720408
-0.011349391 0.043914646 0.026641853 0.028428946 0.016397156 0.03356556 -0.02483414 -0.042306297
0.0062486394 0.0015699796 0.01799691 -0.025007391 -0.007016287 -0.02293752 0.02697455 -0.0079707345
-0.029436747 0.02158438 -0.043879792 -0.026728366 -0.00967805 0.016508073 0.02465825 -0.0008997729
-0.011020445 -0.0054348535 -0.0057559386 0.015643418 -0.04672412 -0.010459916 0.0037061174 0.041474033
0.011381459 0.020377519 0.008647915 0.016565751 0.02087213 0.019621862 -0.06899663 0.04000174
-0.0011323219 -0.03271306 -0.0026950447 -0.016471071 0.07634749 -0.022762168 0.014098014 -0.016927049
-0.045259375 -0.037909377 0.0059802085 0.07159663 0.01773303 -0.0688794 0.01222209 -0.021793328
-0.029618744 0.034938186 -0.012018509 0.048855588 -0.035492577 0.054501683 -0.0062072626 -0.0027851851
-0.05318324 0.004682493 -0.03835058 0.02170972 0.042070977 0.08158087 0.03955222 0.009307775
0.051798135 0.004346184 -0.016517034 0.013706981 -0.0431079 0.07965278 -0.0013011524 -0.009963847
0.06068221 -0.0031280976 -0.019237472 0.067908324 -0.027174512 -0.0241138 -0.07350957 0.023045652
-0.028887812 0.09182142 -0.064815804 -0.021754635 -0.042647995 0.068175815 -0.0071029696 -0.025657615
0.12400445 -0.031161835 -0.08888758 0.094781116 -0.024152646 0.042388935 0.04231161 0.016106801
0.0766726 -0.07410154 -0.025836492 0.046352383 0.02175014 0.052580737 0.045145597 -0.050984297
-0.017299702 -0.07104169 0.0043461835 0.04260937 -0.004316588 -0.0013442241 -0.02454289 -0.056107692
-0.030368302 0.021916835 -0.038412184 0.07626873 0.01149804 -0.0016992058 0.061636716 0.036095202
-0.03377826 -0.06418758 0.009037762 0.06316868 -0.094464645 -0.00026903648 0.028413545 -0.009200525
0.01297797 0.015029753 -0.06368067 -0.007954789 0.04810504 0.025606804 0.06855145 -0.06600638
0.007042861 -0.0189027 -0.027357472 0.03446846 0.05921573 0.036665924 -0.04473235 0.018757591
0.0016359168 0.022425128 -0.028985806 -0.041958526 0.025540328 0.0143886395 0.06692368 0.05604129
-0.032082494 -0.007630909 -0.0014824965 0.033226676 -0.031544235 -0.009306029 -0.0233833 0.07926567
-0.09207597 0.012334789 0.11024828 -0.04285352 0.012685467 -0.014060639 -0.004631688 -0.00044866023
-0.02173674 -0.0026563455 0.0068034455 0.05242862 -0.030927457 0.006432048 0.020504981 -0.0073938905
-0.034058087 0.003943428 0.076719284 -0.024758011 -0.040228255 0.004217646 0.056272466 -0.002157052
0.010456768 0.024668777 0.0685467 -0.0120041985 0.026260292 -0.005480019 0.04996076 -0.012631898
-0.03541208 0.014634491 -0.036024794 -0.09566624 -0.041955665 0.029514728 0.02079457 -0.05273304
-0.013600911 -0.04485038 0.0039011291 -0.006441734 0.07588957 -0.020617316 0.016394457 0.03535474
0.011767993 -0.0064788694 -0.041000534 -0.023007765 0.009045053 -0.038080797 -0.028116835 -0.031893745
0.05557982 0.049165003 0.019301105 -0.0054993657 0.009568684 0.0076551586 0.048711583 -0.03752299
-0.020616319 0.05659327 0.0007885747 -0.029990582 -0.010093165 0.021623505 -0.045813445 0.031179028
0.048452187 -0.019925809 0.020681439 -0.030701715 0.04536751 0.060903564 -0.028595453 -0.04420061
00000000: e1b8 e9bb 3aa6 94bc 6e25 773b 85dd f33b
00000010: 7aad 403c 0049 2a3c 945c 83bc 2620 babc
00000020: ccf2 39bc d8df 333d 0440 da3c d2e3 e83c
00000030: 5453 863c 0a7c 093d f770 cbbc 5e49 2dbd
00000040: 63c1 cc3b c6c7 cd3a 416e 933c 4ddc ccbc
00000050: e2e8 e5bb 77e7 bbbc bbf9 dc3c af97 02bc
00000060: 5525 f1bc bad1 b03c 4cbb 33bd 72f5 dabc
00000070: af90 1ebc f03b 873c 1900 ca3c bdde 6bba
00000080: 198f 34bc db16 b2bb 509c bcbb a026 803c
00000090: ca61 3fbd 1160 2bbc 55e2 723b ade0 293d
000000a0: 4d79 3a3c c1ee a63c fcaf 0d3c e6b4 873c
000000b0: 07fc aa3c 07be a03c 1b4e 8dbd ddd8 233d
000000c0: 6b6a 94ba 21fe 05bd 599f 30bb 57ee 86bc
000000d0: 135c 9c3d ba77 babc 5bfb 663c 98aa 8abc
000000e0: e561 39bd dd46 1bbd a0f5 c33b 41a1 923d
000000f0: dc44 913c a510 8dbd 293f 483c ec87 b2bc
00000100: 02a3 f2bc 581b 0f3d 48e9 44bc cc1c 483d
00000110: aa60 11bd 283d 5f3d 4b66 cbbb a787 36bb
00000120: abd6 59bd 996f 993b 7f15 1dbd 95d8 b13c
00000130: 9e52 2c3d df13 a73d 8201 223d a37f 183c
00000140: 482a 543d 6f6a 8e3b bb4e 87bc 3f93 603c
00000150: e991 30bd ff20 a33d 6e8b aaba 673f 23bc
00000160: e98d 783d c500 4dbb e797 9dbc 8513 8b3d
00000170: 159d debc 4e8a c5bc 2f8c 96bd 3cca bc3c
00000180: 22a6 ecbc de0c bc3d 26be 84bd c736 b2bc
00000190: aaaf 2ebd c39f 8b3d 07c0 e8bb eb2f d2bc
000001a0: 0cf6 fd3d 1b47 ffbc b10a b6bd 9a1c c23d
000001b0: c5db c5bc 05a0 2d3d f04e 2d3d 69f2 833c
000001c0: 8606 9d3d 8cc2 97bd 0da7 d3bc ffdb 3d3d
000001d0: 592d b23c e65e 573d 97ea 383d e9d4 50bd
000001e0: 1bb8 8dbc 4e7e 91bd 6e6a 8e3b 2a87 2e3d
000001f0: 2a72 8dbb ad30 b0ba 2c0e c9bc 2ed1 65bd
00000200: f2c6 f8bc ef8a b33c 1856 1dbd c832 9c3d
00000210: 4662 3c3c e3b7 deba c876 7c3d 90d8 133d
00000220: 135b 0abd c774 83bd 1f13 143c 955e 813d
00000230: ae76 c1bd 770d 8db9 86c3 e83c ccbd 16bc
00000240: 8da1 543c 5a3f 763c 036b 82bd ce54 02bc
00000250: ca09 453d 5cc5 d13c b464 8c3d 5a2e 87bd
00000260: cdc7 e63b d6d9 9abc c71c e0bc cd2e 0d3d
00000270: 318c 723d 022f 163d 4539 37bd 85a9 993c
00000280: 426c d63a e7b4 b73c a473 edbc b4dc 2bbd
00000290: f339 d13c 54be 6b3c 480f 893d 8d8b 653d
000002a0: ef68 03bd b40c fabb 5450 c2ba b218 083d
000002b0: 8734 01bd 5178 18bc 568e bfbc 0a56 a23d
000002c0: 5392 bcbd db17 4a3c dac9 e13d 2c87 2fbd
000002d0: b4d6 4f3c 985e 66bc 6ac5 97bb 283a ebb9
000002e0: 3f11 b2bc 1516 2ebb 70ef de3b 65bf 563d
000002f0: 945b fdbc eec3 d23b 10fa a73c 7348 f2bb
00000300: 7e80 0bbd df37 813b 001f 9d3d 50d1 cabc
00000310: 62c6 24bd 2e34 8a3b f57d 663d 545d 0dbb
00000320: dd52 2b3c 2d16 ca3c 3662 8c3d 42ad 44bc
00000330: d31f d73c bb91 b3bb a7a3 4c3d 05f6 4ebc
00000340: 420c 11bd 81c5 6f3c bc8e 13bd a9ec c3bd
00000350: b4d9 2bbd dfc8 f13c 6059 aa3c 9afe 57bd
00000360: 5bd6 5ebc 08b5 37bd 16aa 7f3b 2e15 d3bb
00000370: fe6b 9b3d a5e5 a8bc ab4d 863c 22d0 103d
00000380: 8ace 403c b24c d4bb 2df0 27bd c87a bcbc
00000390: b431 143c 9cfa 1bbd 4755 e6bc 04a3 02bd
000003a0: aaa7 633d 3e61 493d 5a1d 9e3c 0634 b4bb
000003b0: f8c5 1c3c 20d8 fa3b cc85 473d b5b1 19bd
000003c0: 8ee3 a8bc 58ce 673d 5ab8 4e3a cfae f5bc
000003d0: cd5d 25bc c723 b13c e1a6 3bbd 296b ff3c
000003e0: cd75 463d 733b a3bc 1f6c a93c 2a82 fbbc
000003f0: 48d3 393d 0476 793d 0341 eabc b30b 35bd

conv5_1.0.bias f4 [32]
0.023854647 -0.024199277 0.0751645 0.08048617 0.026298117 0.060861364 0.05016012 -0.0024211619
-0.041530553 0.027217653 0.10042562 0.039678305 0.039399054 0.03630355 0.014974987 0.023869783
-0.03230526 -0.0147325685 0.043689746 0.050394915 -0.039337136 -0.014340161 0.03043792 -0.031180173
-0.051729966 -0.014121146 -0.07002105 -0.011928757 -0.05518516 -0.007999605 -0.045289643 0.068325065
00000000: d26a c33c 903d c6bc d8ef 993d efd5 a43d
00000010: 266f d73c c449 793d b374 4d3d 5bac 1ebb
00000020: f11b 2abd 8ef7 de3c f3ab cd3d b885 223d
00000030: e760 213d 08b3 143d a659 753c 908a c33c
00000040: 8552 04bd df60 71bc 05f4 323d e66a 4e3d
00000050: fa1f 21bd fff2 6abc f258 f93c 906d ffbc
00000060: cde2 53bd 615c 67bc 3267 8fbd d570 43bc
00000070: d609 62bd c610 03bc a281 39bd 03ee 8b3d

conv5_2.0.weight f4 [32, 16, 2, 2, 2]
0.09445383 -0.053359326 0.10104758 -0.0291228 0.024495535 0.0722195 -0.08775508 0.072734214
0.021819962 -0.009200489 0.08112824 0.11575513 -0.089394696 0.10942436 0.09030965 -0.0015232106
0.012303287 -0.021814259 -0.013186932 -0.08856377 -0.0002481128 -0.005865064 -0.0056654406 0.025741288
0.055894554 -0.102310866 -0.0733329 -0.08626379 -0.025537878 -0.085903786 -0.09064139 0.08966685
0.07162144 -0.017650608 0.091762155 -0.08252052 0.0039619706 -0.0500208 -0.05982711 -0.16547275
-0.055836968 -0.00057359465 0.11259137 -0.091585346 -0.09285031 0.033343077 0.03593889 0.06255982
-0.02135371 -0.10215201 0.018932305 0.027989533 0.0058135237 0.001276455 -0.035370752 -0.009356441
0.028185088 -0.02110471 -0.055165723 0.0065427427 0.12474751 0.0767938 0.053606026 0.067834176
-0.070625536 0.045995712 0.050658684 -0.0005342613 -0.07090686 -0.05468505 0.056132123 0.030631846
0.03154121 -0.03270085 -0.038705815 -0.0348268 -0.018395504 0.0050084335 -0.0023877702 -0.036679782
-0.10647084 0.09558341 0.07827645 0.05037228 0.021857217 0.012175336 0.09676216 -0.020675382
-0.018403132 0.014942982 -0.061963618 -0.0622386 -0.0042143865 0.009616026 -0.064361475 -0.018405167
0.0465415 -0.08803844 -0.05069447 -0.10362222 0.067921005 0.03655735 0.0097296 -0.042436592
-0.097885236 -0.082573 -0.02894946 -0.09507146 -0.028392754 0.07399242 0.06335445 -0.022424642
-0.047833983 -0.106893055 0.110552885 -0.07971774 0.09863497 -0.00078630674 0.06607769 0.04232798
0.030192593 -0.12375456 0.047677133 0.042075343 -0.0013101893 -0.05406761 -0.11524499 0.029645177
0.10343508 0.057242375 0.100265704 0.0014551531 0.03568736 -0.01198124 0.03828871 0.090889886
-0.037125304 -0.018883612 0.072283655 0.077072605 -0.03202647 -0.037063874 -0.033422608 0.0042221486
0.069425255 0.057354156 0.0421095 0.0028768359 -0.001829625 0.042345975 -0.016739134 0.052942745
-0.004149601 0.07330147 -0.045627873 0.035851214 0.0667493 0.018972078 -0.03469402 -0.010798191
0.006668109 0.07733808 0.04632663 -0.073679924 -0.019178757 0.044702385 -0.0008042306 -0.0051196795
-0.047968417 -0.00078103313 0.046845045 -0.122885585 0.016494371 -0.07950962 -0.0118532 -0.048871327
0.05893048 -0.06460724 0.048611406 0.08482883 -0.054763976 0.022225926 -0.0052072653 -0.039650094
-0.034087133 0.09749241 0.02185444 0.017435826 -0.0488159 0.056673888 0.0014581422 0.0054893885
-0.08327435 0.017940504 0.028053187 -0.05980209 -0.01109834 -0.048689 0.017796315 -0.025149653
-0.06681607 0.06735421 -0.066609696 0.008140464 0.070133336 -0.045513395 0.051831964 -0.09307458
0.06019337 0.08370371 -0.08830306 0.08787224 0.024307206 0.063861445 0.024081625 0.11264363
-0.08342388 0.008016016 0.009297075 -0.015032372 -0.04955266 0.026601044 -0.009362943 -0.052597366
0.0052662063 0.12479767 -0.053833473 -0.009712304 0.013749542 0.06705338 -0.028579433 0.02708814
-0.038505565 -0.0658272 -0.097264946 0.012458431 -0.03469427 -0.013012511 -0.15737149 -0.08482137
-0.07345293 0.106525615 0.009959293 -0.020877903 -0.047344256 0.099220246 -0.08275114 0.0025235184
-0.046643816 0.08263043 0.08838366 0.052103315 0.019576618 -0.03724651 -0.057573985 -0.06573636
00000000: 0271 c13d 4f8f 5abd 09f2 ce3d f092 eebc
00000010: dcaa c83c d1e7 933d efb8 b3bd adf5 943d
00000020: c7bf b23c a6bd 16bc 9026 a63d 0711 ed3d
00000030: 9114 b7bd e119 e03d 44f4 b83d 77a6 c7ba
00000040: ba93 493c d1b3 b2bc 000e 58bc ec60 b5bd
00000050: 2315 82b9 b92f c0bb 29a5 b9bb 65df d23c
00000060: b0f1 643d 5c88 d1bd 8f2f 96bd 12ab b0bd
00000070: d034 d1bc 53ee afbd 31a2 b9bd 41a3 b73d
00000080: 43ae 923d 0298 90bc cced bb3d 8500 a9bd
00000090: 6bd3 813b 9ce2 4cbd 460d 75bd b071 29be
000000a0: 4eb5 64bd 495d 16ba 4e96 e63d 1991 bbbd
000000b0: 4e28 bebd c092 083d a834 133d 5d1f 803d
000000c0: faed aebc 1335 d1bd ec17 9b3c 4e4a e53c
000000d0: 5f7f be3b b94e a73a ece0 10bd c24b 19bc
000000e0: 6ae4 e63c c9e3 acbc 74f5 61bd 8164 d63b
000000f0: 9f7b ff3d 1146 9d3d fe91 5b3d a5ec 8a3d
00000100: 1fa4 90bd 0066 3c3d 7b7f 4f3d ab0d 0cba
00000110: 9e37 91bd 6efd 5fbd ccea 653d a3ef fa3c
00000120: 5b31 013d 54f1 05bd fd89 1ebd 8ca6 0ebd
00000130: 2bb2 96bc c91d a43b 237c 1cbb 8a3d 16bd
00000140: 620d dabd 3cc1 c33d 674f a03d 2a53 4e3d
00000150: e80d b33c 0f7b 473c 3d2b c63d 6b5f a9bc
00000160: 2ac2 96bc 69d3 743c 90cd 7dbd e7ed 7ebd
00000170: d618 8abb 898c 1d3c f3cf 83bd 6fc6 96bc
00000180: 4da2 3e3d 7f4d b4bd 01a5 4fbd e337 d4bd
00000190: 2b1a 8b3d 29bd 153d e668 1f3c fed1 2dbd
000001a0: 0e78 c8bd 081c a9bd 6b27 edbc d3b4 c2bd
000001b0: ec97 e8bc 5789 973d fabf 813d e2b3 b7bc
000001c0: 91ed 43bd bfea dabd 8d69 e23d 0e43 a3bd
000001d0: 2201 ca3d 2720 4eba bd53 873d 1b60 2d3d
000001e0: 7556 f73c 0873 fdbd 1949 433d 3257 2c3d
000001f0: a8ba abba 0076 5dbd 9105 ecbd 71da f23c
00000200: c5d5 d33d fb76 6a3d 1b58 cd3d d6ba be3a
00000210: e92c 123d f64c 44bc 9fd4 1c3d 7a24 ba3d
00000220: b410 18bd ceb1 9abc 7409 943d 3ed8 9d3d
00000230: 302e 03bd 4ad0 17bd 25e6 08bd f359 8a3b
00000240: d42e 8e3d 31ec 6a3d 037b 2c3d 4c89 3c3b
00000250: 07d0 efba f972 2d3d 8220 89bc 7eda 583d
00000260: 60f9 87bb 151f 963d 4be4 3abd b9d8 123d
00000270: dbb3 883d 556b 9b3c 511b 0ebd e5ea 30bc
00000280: 2780 da3b 6d63 9e3d fec0 3d3d 80e5 96bd
00000290: c51c 9dbc d919 373d 01d3 52ba fcc2 a7bb
000002a0: 887a 44bd 3fbe 4cba 97e0 3f3d 70ab fbbd
000002b0: 341f 873c f1d5 a2bd ed33 42bc 4d2d 48bd
000002c0: 1661 713d cd50 84bd c11c 473d bdba ad3d
000002d0: 3150 60bd 2513 b63c b5a1 aabb 2368 22bd
000002e0: f39e 0bbd 1aaa c73d 1508 b33c 94d5 8e3c
000002f0: 2ef3 47bd e122 683d 221f bf3a 54e0 b33b
00000300: be8b aabd f7f7 923c cccf e53c 09f3 74bd
00000310: d0d5 35bc 1e6e 47bd 94c9 913c a506 cebc
00000320: ddd6 88bd 01f1 893d aa6a 88bd 955f 053c
00000330: 11a2 8f3d 416c 3abd c14d 543d e39d bebd
00000340: 538d 763d da6c ab3d 3cd8 b4bd 5cf6 b33d
00000350: e81f c73c cac9 823d d446 c53c b4b1 e63d
00000360: 24da aabd 9c55 033c c252 183c 574a 76bc
00000370: bbf7 4abd 6fea d93c 0767 19bc 5670 57bd
00000380: 2490 ac3b ec95 ff3d 7d80 5cbd 5b20 1fbc
00000390: c245 613c 4853 893d 6a1f eabc f2e7 dd3c
000003a0: 03b8 1dbd 69d0 86bd d832 c7bd 721e 4c3c
000003b0: 941b 0ebd 6d32 55bc fe25 21be d4b6 adbd
000003c0: 7d6e 96bd 1a2a da3d 4d2c 233c 2308 abbc
000003d0: 0dec 41bd fc33 cb3d 6e79 a9bd 9d61 253b
000003e0: 960d 3fbd 253a a93d 7e02 b53d 496a 553d
000003f0: 255f a03c cc8f 18bd b3d2 6bbd c9a0 86bd

conv5_2.0.bias f4 [16]
0.078077994 0.08917473 -0.023991548 -0.06658937 -0.050972078 -0.052403413 0.03795264 0.035593867
-0.086890765 0.09692961 0.027838657 -0.07313893 0.08266842 -0.046734713 -0.119515784 0.06768695
00000000: 5be7 9f3d 3ea1 b63d ec89 c4bc 0260 88bd
00000010: 19c8 50bd f6a4 56bd 3a74 1b3d e0ca 113d
00000020: c9f3 b1bd 0883 c63d e50d e43c ddc9 95bd
00000030: 104e a93d e66c 3fbd b1c4 f4bd 759f 8a3d

conv3.0.weight f4 [16, 16, 3, 3, 3]
0.03582362 0.021688543 0.027921371 0.02421741 -0.013238222 0.10220963 0.038931523 -0.0054501253
0.006915249 0.02961673 -0.079187825 0.07633878 -0.053869814 -0.0651513 -0.0012702174 0.03840114
0.00075092417 0.04024443 0.046760194 0.033283103 -0.0010136133 -0.015147411 -0.07894844 -0.024667803
0.03427821 0.0013944571 0.009374331 -0.015652835 -0.031462513 0.0040190215 -0.017957633 -0.013560487
0.025127003 -0.011307388 -0.031088926 -0.009479386 0.027484594 -0.0052235746 0.045496132 -0.021477927
-0.06129881 0.00288004 0.041083418 0.021292841 0.01544306 0.024316363 -0.018916901 0.02778165
0.0037183294 -0.01765629 -0.06261201 -0.04537226 0.009225257 0.01577913 -0.04103965 -0.018069753
0.01172705 0.013771668 0.041777696 -0.019140726 -0.01754973 0.05102069 0.002607897 0.007758048
-0.0024097594 -0.013504396 0.043665107 0.03336252 0.0002940848 0.010173692 -0.04667157 -0.049028724
-0.006598304 -0.05390537 0.01694392 -0.008351993 0.0036694815 0.04910697 -0.031703565 0.042336214
0.0018750099 0.02607377 -0.0012654503 0.09245381 -0.01262735 -0.0029773058 0.09210073 0.08642977
-0.020204207 0.0055198483 0.05438859 -0.043507207 0.08854242 -0.07831618 -0.14480497 -0.04128258
0.05409931 -0.010139301 0.101830415 0.02389408 0.009694259 0.092650324 0.02110718 -0.009773754
-0.083923556 0.044455316 0.029233862 0.0053356406 -0.07628458 -0.038753167 0.09190217 -0.016189108
-0.11441959 -0.0021909997 0.05720775 -0.022123488 0.0017647269 0.040723126 -0.04394699 -0.0049921926
-0.03549115 -0.20066284 -0.057583574 -0.0008716813 0.0009957753 -0.014605369 0.04076018 -0.07844161
0.049500246 0.08670637 -0.040301025 -0.11765548 -0.0026524619 0.023310617 0.021781353 0.042957526
0.035287943 -0.09362671 0.006990085 0.058835544 -0.026020538 -0.06306102 0.0035552608 -0.01809458
-0.04464417 0.06231549 0.011073976 0.05302995 0.115713395 0.07089343 -0.023782412 -0.0012110209
-0.008811926 -0.024158245 -0.035882227 -0.010624217 -0.034046527 -0.013853404 0.056607984 -0.04898578
-0.008028677 0.01706179 -0.02690888 0.051726826 -0.00088563364 -0.027505973 0.079445995 0.030617082
0.027003054 0.017514471 -0.039203983 -0.020305082 0.030398935 0.013390742 -0.13039596 -0.14401314
-0.036950193 -6.921597e-05 0.04753871 0.030336507 -0.017476795 -0.040235274 0.042062525 -0.04091494
-0.10678567 -0.09106994 0.047064845 0.013021068 0.024925835 -0.0040993653 0.009738823 -0.009059633
-0.042567484 -0.03620977 0.023504946 -0.028730301 -0.01068165 0.05189765 -0.030627264 -0.007753548
-0.050860632 0.018781936 0.073596515 0.025271058 0.020522797 -0.05838323 -0.010007177 -0.01767753
-0.020339318 0.0001410048 -0.021126157 0.020617353 -0.04859298 -0.014818858 -0.025212271 -0.05155604
-0.033547536 -0.032400895 -0.058610268 0.024253149 0.030301806 -0.040371284 -0.03194901 -0.0045498065
-0.037691657 -0.021885807 0.0852774 0.0049353126 0.04446935 0.040219095 0.006414497 -0.04643718
0.017051874 -0.038061943 -0.04377987 0.04129321 -0.049639333 0.0015801815 0.027720299 0.039830435
-0.031036451 0.009859079 -0.019584391 0.017804587 -0.031592965 -0.071026176 -0.026872588 0.03189708
-0.040404897 -0.04263335 0.014433031 -0.03340377 -0.04255435 0.07822171 -0.085916676 0.025490636
00000000: cabb 123d 2cac b13c 5cbb e43c 9763 c63c
00000010: 21e5 58bc 4853 d13d a976 1f3d f796 b2bb
00000020: 5099 e23b c99e f23c 3a2d a2bd 8257 9c3d
00000030: 98a6 5cbd 0b6e 85bd 6c7d a6ba 844a 1d3d
00000040: abd9 443a 58d7 243d 9e87 3f3d dd53 083d
00000050: 38db 84ba d92c 78bc b8af a1bd 2214 cabc
00000060: 4f67 0c3d 37c6 b63a cb96 193c 603a 80bc
00000070: d6de 00bd ffb1 833b e31b 93bc ce2c 5ebc
00000080: 25d7 cd3c 9f42 39bc 34ae febc 6d4f 1bbc
00000090: 5f27 e13c 852a abbb 275a 3a3d 7af2 afbc
000000a0: 7614 7bbd 0ebf 3c3b 1647 283d 536e ae3c
000000b0: e304 7d3c 1c33 c73c 9ef7 9abc 5896 e33c
000000c0: 37af 733b eda3 90bc ba3a 80bd 43d8 39bd
000000d0: 8825 173c 3c43 813c 3119 28bd 0507 94bc
000000e0: d022 403c 90a2 613c 171f 2b3d 03cd 9cbc
000000f0: 74c4 8fbc 12fb 503d 40e9 2a3b 3937 fe3b
00000100: 0eed 1dbb 8b41 5dbc 2fda 323d 23a7 083d
00000110: 652f 9a39 8faf 263c b02a 3fbd 58d2 48bd
00000120: 9636 d8bb e1cb 5cbd facd 8a3c ccd6 08bc
00000130: af7b 703b 6424 493d 99db 01bd bd68 2d3d
00000140: e4c2 f53a a998 d53c 77dd a5ba 6c58 bd3d
00000150: f2e2 4ebc e71e 43bb 4f9f bc3d 1702 b13d
00000160: 4b83 a5bc d8df b43b 92c6 5e3d 9d34 32bd
00000170: ba55 b53d 3c64 a0bd c147 14be ec17 29bd
00000180: 3d97 5d3d 501f 26bc 778c d03d 85bd c33c
00000190: abd4 1e3c 74bf bd3d f7e8 ac3c 1822 20bc
000001a0: 1de0 abbd c716 363d da7b ef3c 99d6 ae3b
000001b0: 173b 9cbd a4bb 1ebd 3437 bc3d 059f 84bc
000001c0: d154 eabd e096 0fbb ac52 6a3d 513c b5bc
000001d0: 694e e73a 4bcd 263d c201 34bd 8c95 a3bb
000001e0: 2b5f 11bd 8f7a 4dbe c1dc 6bbd 8b81 64ba
000001f0: ad84 823a 5c4b 6fbc 26f4 263d ffa5 a0bd
00000200: c5c0 4a3d 1c93 b13d b012 25bd 5bf5 f0bd
00000210: edd4 2dbb e8f5 be3c cf6e b23c 3bf4 2f3d
00000220: 178a 103d 5cbf bfbd 150d e53b 8afd 703d
00000230: 0629 d5bc 2326 81bd 61ff 683b 163b 94bc
00000240: cedc 36bd 873e 7f3d 9f6f 353c ef35 593d
00000250: 25fb ec3d 9330 913d 55d3 c2bc 1ebb 9eba
00000260: e55f 10bc 83e7 c5bc 3ef9 12bd 3211 2ebc
00000270: 5f74 0bbd 63f9 62bc c6dd 673d 50a5 48bd
00000280: b68a 03bc 2bc5 8b3c 0370 dcbc 82df 533d
00000290: de29 68ba 3554 e1bc 95b4 a23d add0 fa3c
000002a0: 8235 dd3c 827a 8f3c 5b94 20bd d856 a6bc
000002b0: 3007 f93c d864 5b3c 8586 05be 2e78 13be
000002c0: 1659 17bd 0a28 91b8 f3b7 423d 4484 f83c
000002d0: 7f2b 8fbc becd 24bd c149 2c3d 6d96 27bd
000002e0: 72b2 dabd e082 babd 11c7 403d 5156 553c
000002f0: 4431 cc3c f853 86bb 968f 1f3c db6e 14bc
00000300: 3e5b 2ebd b250 14bd 728d c03c cf5b ebbc
00000310: 1602 2fbc a192 543d 07e6 fabc 7a11 febb
00000320: 3d53 50bd 93dc 993c c5b9 963d 4005 cf3c
00000330: 6d1f a83c 4123 6fbd 24f5 23bc 78d0 90bc
00000340: a49e a6bc b0da 1339 c310 adbc b9e5 a83c
00000350: 6f09 47bd ccca 72bc f789 cebc 6d2c 53bd
00000360: 2469 09bd cdb6 04bd 5211 70bd 8aae c63c
00000370: 7e3b f83c 5c5c 25bd f7dc 02bd 8b16 95bb
00000380: 9162 1abd dd49 b3bc eba5 ae3d 67b8 a13b
00000390: 7e25 363d c7bc 243d b330 d23b ea34 3ebd
000003a0: 5fb0 8b3c d7e6 1bbd 8552 33bd 1223 293d
000003b0: 9d52 4bbd 181e cf3a ae15 e33c 3d25 233d
000003c0: 2840 febc f987 213c 726f a0bc edda 913c
000003d0: a067 01bd 2c76 91bd e723 dcbc 83a6 023d
000003e0: 9b7f 25bd 4fa0 2ebd 8578 6c3c 64d2 08bd
000003f0: 784d 2ebd b432 a03d 15f5 afbd bdd1 d03c

conv3.0.bias f4 [16]
0.13835086 0.062172282 0.117746085 0.116452605 -0.02215853 -0.012837996 -0.069809295 -0.05999811
0.08137084 -0.064593285 0.06842278 0.16003343 0.08934583 0.0035980742 0.07025444 0.045393314
00000000: d9ab 0d3e 5da8 7e3d dc24 f13d b47e ee3d
00000010: ce85 b5bc 7556 52bc 2df8 8ebd 94c0 75bd
00000020: c1a5 a63d 7c49 84bd 3e21 8c3d cedf 233e
00000030: f2fa b63d abcd 6b3b 8fe1 8f3d 57ee 393d

conv3_1.0.weight f4 [32, 16, 3, 3, 3]
0.0027938045 0.012089687 -0.049414594 0.033450767 -0.020853013 -0.027921628 0.04546094 0.05790724
-0.002548183 -0.031424884 0.01884814 -0.059414197 -0.015393367 0.048064735 0.083993495 -0.03331258
0.07186141 -0.0013272915 -0.033782903 0.022975402 0.01099918 -0.0025605513 -0.06699707 -0.016398465
0.005333652 -0.07558244 -0.0380568 0.03556741 0.022309806 0.05851838 0.024548173 -0.061354607
0.016813401 -0.028262816 0.0020117008 -0.041365746 -0.037410937 0.061691374 -0.0026306435 0.062001575
0.13136768 -0.052749474 0.04242705 -0.015085687 -0.06437179 -0.021820568 0.0031325882 0.009565494
0.0034289921 0.029119078 0.030205688 -0.010503495 -0.00434401 -0.073093176 0.008222588 -0.025080727
-0.027845245 0.01984515 -0.017001726 -0.07811608 0.013105987 0.014852859 -0.055240713 0.030754853
0.02402153 -0.022903975 0.0025770783 0.079473786 -0.041760635 -0.020684024 0.00082837546 0.039907675
0.024956565 -0.025223434 0.00079315354 0.04216716 0.09454032 0.046675116 -0.05194464 -0.01862641
0.022472281 -0.029973647 0.037515424 -0.011733291 -0.026841277 -0.062283795 -0.05257315 -0.062658854
-0.035932507 -0.010380237 -0.0021790022 -0.01638581 0.059243232 -0.069885045 0.03556429 0.07595813
0.0050632893 -0.04197694 0.008304795 -0.0024615878 0.038861945 -0.029219218 -0.028073462 0.026998477
0.052123554 0.001990579 0.017861852 0.019386461 -0.0057329335 0.027706837 -0.0034709484 0.00595385
-0.0043337336 -0.02380431 -0.040667273 0.012051697 0.028213155 0.04363188 -0.018877592 -0.02768543
-0.056626935 -0.014024574 -0.069698595 0.012778938 0.04801337 0.027703203 -0.051115237 0.017717976
-0.05051382 -0.042483233 0.023178866 0.021892296 0.0060144374 0.027295867 -0.013046561 0.033710446
-0.034435235 0.01302126 -0.04404122 -0.013990794 0.035763916 0.022940252 0.029201882 0.0032524073
0.013679525 -0.0005894993 -0.007214893 0.0042217416 0.06722484 0.07487126 -0.021275388 -0.012535237
0.024622275 0.0035994356 0.051573593 -0.010973442 -0.03485965 -0.068291515 0.04949817 -0.06416414
-0.08411517 -0.022115916 -0.066111065 -0.06326072 -0.06056001 -0.06718044 0.0076875053 -0.012424289
-0.043175586 0.015349474 -0.025676657 -0.076340154 -0.027920838 -0.010153688 0.0328396 -0.0036129348
0.04418913 -0.012045183 0.08487943 0.026737483 -0.06262395 -0.009259696 -0.06955032 -0.011977673
0.06709452 0.045477755 -0.05259538 0.06774772 0.0027070316 0.1226977 0.040205605 0.07753441
0.056238353 0.10479277 0.019336462 0.032426275 0.02168123 0.047784146 0.03763496 0.07933063
0.013855118 0.046498552 0.042546827 -0.02048184 0.028958894 0.06078857 0.049170263 0.031994402
0.005163037 0.014487268 0.023452392 0.0070218905 0.016205365 0.040452838 0.081513226 0.08417363
-0.011335479 -0.03373066 0.0007581181 -0.020775529 -0.10448594 -0.06191035 -0.015166989 -0.006800339
-0.0031152826 -0.009682511 -0.047326226 -0.012590279 -0.024482867 0.016978944 0.10833604 -0.0355295
0.06302123 0.08514731 -0.009828384 -0.009880948 0.023453373 -0.0676025 -0.027924184 0.06925645
-0.020295441 0.0509559 0.024405215 0.039605815 0.04643422 0.018724153 0.04548241 0.1131592
0.029094484 0.069967 0.09692404 0.1025724 -0.01959994 0.010290992 0.0049830372 -0.012006027
00000000: 4318 373b d313 463c f566 4abd ac03 093d
00000010: f0d3 aabc e6bb e4bc 4035 3a3d 2430 6d3d
00000020: 6bff 26bb 61b7 00bd 6a67 9a3c 4d5c 73bd
00000030: 7634 7cbc 87df 443d c804 ac3d c672 08bd
00000040: 132c 933d 83f8 adba f15f 0abd e936 bc3c
00000050: e835 343c ecce 27bb c335 89bd 1356 86bc
00000060: eac5 ae3b f7ca 9abd 72e1 1bbd 22af 113d
00000070: 0ec3 b63c f8b0 6f3d 4019 c93c f84e 7bbd
00000080: 42bc 893c 6c87 e7bc bdd6 033b 216f 29bd
00000090: 363c 19bd 18b0 7c3d e066 2cbb 5df5 7d3d
000000a0: 4085 063e d50f 58bd fdc7 2d3d f529 77bc
000000b0: 5bd5 83bd 0cc1 b2bc 1c4c 4d3b 97b8 1c3c
000000c0: f1b8 603b 228b ee3c eb71 f73c da16 2cbc
000000d0: 3258 8ebb e0b1 95bd 09b8 063c 1976 cdbc
000000e0: b61b e4bc 4c92 a23c 3447 8bbc 53fb 9fbd
000000f0: 7eba 563c 6859 733c 1644 62bd 9af1 fb3c
00000100: cdc8 c43c 1ea1 bbbc 33e4 283b 27c3 a23d
00000110: 330d 2bbd 8b71 a9bc 5627 593a 3b76 233d
00000120: b671 cc3c 60a1 cebc a2eb 4f3a 79b7 2c3d
00000130: 5b9e c13d 682e 3f3d e7c3 54bd 6a96 98bc
00000140: ca17 b83c 4b8b f5bc c6a9 193d fd3c 40bc
00000150: 3de2 dbbc 4b1d 7fbd f156 57bd 4953 80bd
00000160: f72d 13bd df11 2abc 97cd 0ebb 893b 86bc
00000170: 08a9 723d e41f 8fbd dcab 113d f08f 9b3d
00000180: f3e9 a53b 03f0 2bbd d610 083c 9752 21bb
00000190: b42d 1f3d 245d efbc 51fa e5bc e92b dd3c
000001a0: 827f 553d 6074 023b 0553 923c 5bd0 9e3c
000001b0: 55db bbbb 73f9 e23c da78 63bb 8418 c33b
000001c0: fe01 8ebb 4201 c3bc ba92 26bd 7b74 453c
000001d0: 461f e73c 58b7 323d 2ea5 9abc 8ecc e2bc
000001e0: a5f1 67bd 54c7 65bc 23be 8ebd c05e 513c
000001f0: aba9 443d d4f1 e23c 365e 51bd 4a25 913c
00000200: 94e7 4ebd e602 2ebd 9be1 bd3c 7957 b33c
00000210: c214 c53b 959b df3c 3ec1 55bc f713 0a3d
00000220: f60b 0dbd 1f57 553c 9164 34bd a539 65bc
00000230: 2f7d 123d 32ed bb3c c938 ef3c 5726 553b
00000240: 1620 603c a188 1aba e96a ecbb 8956 8a3b
00000250: 2dad 893d 1a56 993d b949 aebc 9860 4dbc
00000260: a7b4 c93c 82e4 6b3b d53e 533d f4c9 33bc
00000270: fec8 0ebd 6cdc 8bbd 98be 4a3d 7d68 83bd
00000280: 9344 acbd 702c b5bc 3d65 87bd d68e 81bd
00000290: c60d 78bd e695 89bd 78e7 fb3b 3f8f 4bbc
000002a0: e2d8 30bd 5c7c 7b3c da57 d2bc 3a58 9cbd
000002b0: 3eba e4bc a75b 26bc d182 063d fdc6 6cbb
000002c0: a9ff 343d 2959 45bc 44d5 ad3d 9108 db3c
000002d0: fc40 80bd fbb5 17bc 6670 8ebd 003e 44bc
000002e0: da68 893d e246 3a3d 416e 57bd 51bf 8a3d
000002f0: 7468 313b ef48 fb3d a2ae 243d 5cca 9e3d
00000300: 305a 663d 989d d63d 8067 9e3c 6ad1 043d
00000310: d69c b13c 4fb9 433d 1e27 1a3d 1978 a23d
00000320: 9400 633c 4475 3e3d 9545 2e3d 88c9 a7bc
00000330: 343b ed3c 70fd 783d c266 493d 900c 033d
00000340: b22e a93b 025c 6d3c 3b1f c03c e317 e63b
00000350: 1dc1 843c e0b1 253d 68f0 a63d 3963 ac3d
00000360: 72b8 39bc 2929 0abd 72bc 463a 7131 aabc
00000370: b9fc d5bd b595 7dbd f67e 78bc 61d5 debb
00000380: c529 4cbb 65a3 1ebc 25d9 41bd 7547 4ebc
00000390: 4b90 c8bc 6d17 8b3c 49df dd3d 6287 11bd
000003a0: 4611 813d b661 ae3d 3b07 21bc b3e3 21bc
000003b0: 4a21 c03c 2e73 8abd 42c1 e4bc 53d6 8d3d
000003c0: a042 a6bc 22b7 503d 72ed c73c b539 223d
000003d0: cf31 3e3d 6563 993c c34b 3a3d 03c0 e73d
000003e0: 8e57 ee3c dc4a 8f3d 1c80 c63d 7a11 d23d
000003f0: 0e90 a0bc 8d9b 283c bf48 a33b edb4 44bc

conv3_1.0.bias f4 [32]
-0.004208866 0.08480443 -0.052712586 0.016859088 -0.041176613 -0.060752507 -0.03927019 0.09379276
-0.020880042 0.06641192 0.012638848 0.019919993 0.10798099 0.052523155 0.027246675 0.106967896
-0.03917555 -0.095585994 0.004158485 0.021680502 0.011824948 -0.043824274 0.022410877 -0.051944077
-0.08442933 -0.021506526 -0.09999664 0.046895627 0.046572667 -0.02128045 0.09050188 -0.011951318
00000000: 87ea 89bb f2ad ad3d 27e9 57bd 121c 8a3c
00000010: cfa8 28bd 9fd7 78bd c7d9 20bd 6b16 c03d
00000020: 9f0c abbc f902 883d 2c13 4f3c 412f a33c
00000030: 2325 dd3d 8522 573d 6b34 df3c fc11 db3d
00000040: 8b76 20bd 97c2 c3bd e743 883b 4f9b b13c
00000050: 6dbd 413c 1581 33bd 0497 b73c 50c3 54bd
00000060: 49e9 acbd 742e b0bc 0acb ccbd a115 403d
00000070: fbc2 3e3d 5754 aebc 0d59 b93d 76cf 43bc

conv3_2.0.weight f4 [32, 16, 2, 2, 2]
0.034493703 -0.007734645 -0.04389121 0.048204992 0.030675871 0.0053844894 -0.028052265 -0.033664074
-0.06102952 0.0046694507 0.07446055 -0.053810325 0.05144611 0.10035205 0.028646234 -0.026438499
-0.114566006 -0.07367642 -0.11957542 -0.16125596 -0.040205933 -0.09344694 -0.13173246 -0.11814262
0.11839045 0.05972737 -0.00090971973 0.056267902 0.10012443 -0.22698581 -0.014013468 0.17418538
-0.10565313 0.1074674 0.063270405 0.079917885 -0.0032332826 0.047788505 0.04660811 -0.015217943
0.05161386 -0.011728897 0.15932323 0.05863192 0.08954106 -0.037496056 0.06497363 0.013194195
-0.13049287 -0.22001494 -0.057529178 -0.07068857 0.015918016 -0.087565765 -0.07447249 -0.059605636
-0.050021008 0.059316102 0.042146273 0.0025090715 -0.014905205 0.0053339447 0.13520704 0.069269285
-0.117178105 0.015302793 -0.11345457 -0.021921292 0.0010181273 0.030154083 0.06448971 -0.0493103
0.037688125 -0.115490355 0.0013770568 -0.07573257 0.057625897 -0.016481694 0.023662291 -0.085757084
0.014576681 -0.15334947 0.1585973 0.0220821 0.084039375 -0.053562853 -0.038877755 -0.057414353
-0.04552378 0.105053075 -0.078007646 -0.059899673 -0.039551564 0.07597994 -0.08909494 -0.12307654
-0.028540326 -0.005516328 0.02035235 -0.050460435 -0.05763692 -0.103468336 -0.19462882 0.04949885
0.018234467 -0.06532571 0.05852638 0.10569207 -0.0023230386 0.07090182 -0.043671887 0.1676951
0.019711517 -0.048079673 -0.04863247 -0.05296482 0.13302614 0.009512813 0.12067229 0.06269669
-0.1143539 -0.09830728 -0.021164836 -0.1099816 -0.054612473 -0.09056011 -0.08339068 -0.11034129
-0.017798653 -0.056256745 -0.07004211 0.09249255 0.06817269 -0.04995652 -0.020486355 -0.11692142
-0.010320196 -0.09766572 0.09941754 0.07955786 0.07633287 -0.097434215 0.10101023 0.021722544
0.034739863 0.12530644 -0.13394251 -0.043514363 -0.035475053 0.061232544 -0.0012870624 -0.0107769435
0.11279724 -0.005845535 0.091542885 -0.044781987 0.04289067 0.025368143 0.061319277 -0.00791075
-0.07526004 -0.08759354 0.067875504 0.12461406 0.08665957 -0.07776649 0.18928212 0.05114573
-0.120607264 0.0899226 -0.032276925 0.07549609 0.014819127 0.060491737 -0.07587627 -0.031392064
-0.0005134804 -0.033928923 -0.07153655 -0.015481154 -0.06863241 0.015907282 -0.06634241 0.12320487
0.027419241 -0.08215341 0.15467326 -0.050637115 0.09488098 -0.0383039 0.091432616 -0.00363337
-0.017672794 -0.03817962 0.025773343 -0.085025124 -0.020095756 0.10023825 0.019313546 -0.01493052
0.053668592 -0.029691502 -0.015015117 -0.016793769 0.085445665 0.02660346 0.028443541 0.06420279
0.026958918 0.03377366 -0.029940272 0.016810425 -0.05485096 0.11763457 -0.03712667 0.12758262
-0.030594233 -0.014848981 0.056577604 0.03962432 -0.018674955 0.026478143 0.090081185 -0.046486426
-0.030853512 0.07727593 0.04356284 -0.03941016 -0.045622922 0.06736324 0.013670577 -0.025522873
-0.014677635 0.044683408 0.07249939 -0.11057122 0.044354223 -0.021944495 -0.11988156 -0.15422171
-0.033818632 0.046991117 0.01896704 -0.043302055 0.13572936 -0.05296418 0.0019842337 0.024031596
-0.052362807 0.050116755 -0.09635143 -0.022450184 0.030068364 -0.059225798 -0.048674483 0.103725605
00000000: 4549 0d3d e872 fdbb 45c7 33bd 9972 453d
00000010: f74b fb3c 5f70 b03b ddcd e5bc 57e3 09bd
00000020: 17fa 79bd 3102 993b c67e 983d 3768 5cbd
00000030: 28b9 523d 6085 cd3d 82ab ea3c 8d95 d8bc
00000040: 95a1 eabd aae3 96bd f5e3 f4bd 4820 25be
00000050: faae 24bd 1c61 bfbd e0e4 06be c2f4 f1bd
00000060: b176 f23d b0a4 743d 427a 6eba 2c79 663d
00000070: 0a0e cd3d f86e 68be bf98 65bc a75d 323e
00000080: ab60 d8bd de17 dc3d ea93 813d fdab a33d
00000090: 7be5 53bb e1bd 433d 25e8 3e3d ae54 79bc
000000a0: 0e69 533d 8f2a 40bc a125 233e 0628 703d
000000b0: 4e61 b73d 7795 19bd e510 853d 772c 583c
000000c0: ec9f 05be 994b 61be b7a3 6bbd 2bc5 90bd
000000d0: 8066 823c ae55 b3bd 0885 98bd 0a25 74bd
000000e0: d4e2 4cbd 71f5 723d 92a1 2c3d 3c6f 243b
000000f0: f634 74bc 5fc8 ae3b b773 0a3e 0edd 8d3d
00000100: 13fb efbd 91b8 7a3c df5a e8bd 4894 b3bc
00000110: af72 853a b205 f73c 2e13 843d 99f9 49bd
00000120: dd5e 1a3d 3586 ecbd 5c7e b43a ad19 9bbd
00000130: 2209 6c3d 9e04 87bc 6cd7 c13c 69a1 afbd
00000140: 08d3 6e3c a507 1dbe 5567 223e 85e5 b43c
00000150: d61c ac3d b964 5bbd 483e 1fbd 502b 6bbd
00000160: 2577 3abd 1126 d73d 79c2 9fbd 5c59 75bd
00000170: d200 22bd 5f9b 9b3d 6877 b6bd 8e0f fcbd
00000180: 67cd e9bc 50c2 b4bb f9b9 a63c 9aaf 4ebd
00000190: b114 6cbd 35e7 d3bd c74c 47be 4ebf 4a3d
000001a0: 7360 953c 7cc9 85bd 5cb9 6f3d 1675 d83d
000001b0: 1f3e 18bb f934 913d 4be1 32bd 44b8 2b3e
000001c0: 0c7a a13c 31ef 44bd d732 47bd a4f1 58bd
000001d0: 0138 083e a1db 1b3c 0923 f73d 1f67 803d
000001e0: 6132 eabd 5455 c9bd e161 adbc 083e e1bd
000001f0: 54b1 5fbd 9477 b9bd bcc8 aabd 9dfa e1bd
00000200: 7bce 91bc 796d 66bd 3d72 8fbd bc6c bd3d
00000210: 209e 8b3d 359f 4cbd 00d3 a7bc 7f74 efbd
00000220: 0a16 29bc f704 c8bd 6c9b cb3d 3bef a23d
00000230: 6854 9c3d 978b c7bd 74de ce3d 7af3 b13c
00000240: 634b 0e3d 5550 003e 3a28 09be 1e3c 32bd
00000250: 4a4e 11bd face 7a3d a6b2 a8ba c791 30bc
00000260: 3d02 e73d e78b bfbb d67a bb3d 516d 37bd
00000270: 21ae 2f3d dad0 cf3c ec29 7b3d 179c 01bc
00000280: f021 9abd 3e64 b3bd 5002 8b3d a835 ff3d
00000290: 937a b13d 0a44 9fbd 2cd3 413e 2f7e 513d
000002a0: f100 f7bd 5729 b83d cf34 04bd b29d 9a3d
000002b0: eccb 723c 2fc6 773d 0565 9bbd f794 00bd
000002c0: 169b 06ba 0ef9 0abd c181 92bd aba4 7dbc
000002d0: 268f 8cbd fd4f 823c 88de 87bd d652 fc3d
000002e0: 519e e03c 0c40 a8bd ab62 1e3e dd68 4fbd
000002f0: f650 c23d 8de4 1cbd 0641 bb3d d51d 6ebb
00000300: 89c6 90bc 3c62 1cbd 9e22 d33c a721 aebd
00000310: db9f a4bc b649 cd3d 7137 9e3c 249f 74bc
00000320: 99d3 5b3d 983b f3bc f701 76bc 1693 89bc
00000330: 23fe ae3d 80ef d93c 6e02 e93c c17c 833d
00000340: f3d8 dc3c 4056 0a3d 4d45 f5bc 04b6 893c
00000350: 66ab 60bd 65ea f03d 2312 18bd 05a5 023e
00000360: c2a0 fabc 2449 73bc ebbd 673d 1c4d 223d
00000370: 38fc 98bc b1e8 d83c 7c7c b83d 8d68 3ebd
00000380: 81c0 fcbc d842 9e3d f36e 323d 8c6c 21bd
00000390: 1adf 3abd bdf5 893d 8efa 5f3c 5815 d1bc
000003a0: 777a 70bc f305 373d 8f7a 943d 2a73 e2bd
000003b0: c6ac 353d f1c4 b3bc 7784 f5bd 4cec 1dbe
000003c0: 6885 0abd c279 403d c460 9b3c 7f5d 31bd
000003d0: a3fc 0a3e f8f0 58bd eb09 023b e9dd c43c
000003e0: 627a 56bd 3a47 4d3d e653 c5bd 73e9 b7bc
000003f0: ee51 f63c c096 72bd e55e 47bd 176e d43d

conv3_2.0.bias f4 [16]
-0.025472075 0.10676927 0.028549202 0.027812017 -0.003439522 0.023001548 0.051756833 -0.03513818
0.060568072 0.031351347 0.042552818 0.077354565 0.017460026 0.091675915 0.059163865 0.073859975
00000000: d0aa d0bc d9a9 da3d 04e0 e93c 07d6 e33c
00000010: 9b69 61bb be6d bc3c f9fe 533d 0ded 0fbd
00000020: 3a16 783d 456a 003d dd4b 2e3d 126c 9e3d
00000030: 5408 8f3c 95c0 bb3d cf55 723d e643 973d

stem_1.weight f4 [16, 32, 3, 3, 3]
0.030274441 0.03658765 -0.014857885 -0.012277463 0.021846917 -0.036855914 0.005869925 -0.021707289
0.010744758 0.0025202895 0.046881624 0.017078169 0.014332558 0.0024464414 -0.0433527 -0.0102713
-0.05495891 0.029770117 0.007814886 -0.03228385 -0.009846898 0.02846999 0.036231667 -0.02215786
-0.05534918 0.022244887 0.058335125 0.02062399 -0.00863085 -0.015213524 0.04008498 -0.024105527
-0.012013956 -0.005851891 0.023479922 0.05061567 -0.026022114 0.0011270585 -0.0026938063 0.03549634
0.06524666 -0.021406135 0.037434377 0.038855616 -0.054396305 0.02671479 -0.0061638514 0.0046557565
0.009161442 0.020246292 -0.007586179 0.013256504 0.022151824 -0.01036256 0.011073105 0.011364547
0.026526676 0.02819874 -0.0117462035 -0.031519458 -0.00937097 -0.04611577 -0.0173374 0.013116384
-0.015547301 -0.0028757255 0.026780812 -0.05990705 -0.005443315 -0.0020247719 -0.0494094 -0.033659216
0.029379204 -0.011049102 -0.0051011792 -0.007279615 -0.061518285 -0.0032652132 -0.058926944 -0.008454195
-0.009160683 -0.0002468807 0.018708767 0.0008716703 0.0037879674 -0.014653555 0.004922803 -0.0063291197
-0.049701817 -0.047802866 -0.014543651 0.012262292 0.057508938 -0.0062802564 0.02263822 0.008835949
-0.025176285 -0.040676445 -0.028005864 -0.0028024004 0.017981043 0.015696969 -0.021068092 0.024235178
0.029450487 -0.0022833114 0.030069036 0.031108238 -0.009063722 0.018635571 -0.054233484 -0.024424203
-0.010488878 0.0046884813 -0.009047214 -0.016367791 -0.00816385 -0.047279384 0.008433791 -0.045586742
0.01175503 -0.032219753 -0.037744142 -0.019089404 -0.043308713 -0.0073346603 0.006043029 0.00010207468
-0.06224982 -0.019451976 0.0016620745 0.011620247 -0.0043230173 0.022143852 0.042111192 -0.0062433956
0.006141029 -0.01310571 -0.024545902 -0.015168604 -0.009268541 -0.011131606 -0.048717182 -0.047206316
-0.036442164 -0.0015506606 -0.017371796 -0.0032083343 -0.022511793 -0.014872817 0.020934025 -0.047559686
0.004743289 -0.04322725 -0.03358331 -0.014365563 -0.025943948 -0.0090318415 9.9743316e-05 0.023766711
0.051655665 0.03785925 0.034720276 -0.019198399 0.009724833 -0.06594991 -0.059194464 0.0057740915
-0.034578796 -0.0339301 -0.029236168 -0.05418208 -0.019830778 0.0148678105 -0.011555704 0.0463366
0.013082358 -0.01445053 0.006300117 0.047167126 -0.037823398 -0.04852009 0.0071673742 0.001249861
-0.014373073 -0.046049953 -0.027756188 0.051720478 0.021768924 0.0071392306 -0.0022425773 0.0013861533
-0.043337807 -0.06847242 -0.0019409388 0.03114033 -0.06554533 0.014151487 -0.004523526 -0.024491955
-0.012363931 0.02189677 -0.043782488 -0.041043065 -0.03377674 -0.05121115 -0.0133621665 -0.030503467
-0.06253402 -0.058686487 -0.017178249 -0.0037116457 -0.028183755 -0.025032252 0.020871986 0.049606092
0.01839929 -0.032764457 -0.016514746 0.031449925 -0.02491695 -0.053754527 -0.031141298 0.0024260138
-0.019592617 -0.022694563 -0.0014600552 -0.06650011 -0.0031983287 0.006644626 -0.058185197 0.026848573
0.010775945 -0.059250336 0.013625058 -0.030825837 -0.020192288 -0.003887488 0.040541533 -0.005574434
0.014450768 0.02763016 0.001526692 -0.033145603 -0.018948583 -0.0021133083 0.0025341008 0.02810679
0.027969353 -0.034718152 0.02635791 0.03690293 0.0020561516 -0.006534933 0.041205283 0.03242921
00000000: 1b02 f83c efdc 153d 7d6e 73bc 6a27 49bc
00000010: 4ef8 b23c 3af6 16bd 8058 c03b 7cd3 b1bc
00000020: c80a 303c 712b 253b f206 403d 84e7 8b3c
00000030: 1bd3 6a3c 7a54 203b 9a92 31bd f448 28bc
00000040: 981c 61bd 76e0 f33c 020a 003c 123c 04bd
00000050: e254 21bc e539 e93c a867 143d 6784 b5bc
00000060: d2b5 62bd e93a b63c d0f0 6e3d a4f3 a83c
00000070: 6968 0dbc 2542 79bc 2630 243d f478 c5bc
00000080: 2fd6 44bc 38c1 bfbb f758 c03c 6052 4f3d
00000090: 542c d5bc cfb9 933a 928a 30bb 9c64 113d
000000a0: 0aa0 853d eb5b afbc ca54 193d 1127 1f3d
000000b0: a9ce 5ebd fad8 da3c 22fa c9bb 518f 983b
000000c0: df19 163c 8ddb a53c 7b95 f8bb cf31 593c
000000d0: be77 b53c bac7 29bc f86b 353c 5d32 3a3c
000000e0: 794e d93c 0b01 e73c 2673 40bc 8c1a 01bd
000000f0: b288 19bc e4e3 3cbd 2a07 8ebc 1ae6 563c
00000100: 1bba 7ebc ab76 3cbb 6f63 db3c 1861 75bd
00000110: d65d b2bb 09b2 04bb 8361 4abd 3fde 09bd
00000120: a8ac f03c 4b07 35bc cb27 a7bb d689 eebb
00000130: 99fa 7bbd 30fd 55bb 615d 71bd 7783 0abc
00000140: b016 16bc c46f 81b9 2143 993c ce80 643a
00000150: 8c3f 783b 7715 70bc 774f a13b 8164 cfbb
00000160: 2294 4bbd f0cc 43bd 7e48 6ebc c8e7 483c
00000170: 7e8e 6b3d 9cca cdbb ca73 b93c a8c4 103c
00000180: 7f3e cebc 589c 26bd 8e6c e5bc 7aa8 37bb
00000190: fb4c 933c ee96 803c fe96 acbc da88 c63c
000001a0: 2642 f13c 9ca3 15bb 5753 f63c b4d6 fe3c
000001b0: 0180 14bc a0a9 983c ee23 5ebd 4415 c8bc
000001c0: 8bd9 2bbc d5a1 993b c43a 14bc bf15 86bc
000001d0: abc1 05bc 07a8 41bd e22d 0a3c 2ab9 3abd
000001e0: 2b98 403c dcf8 03bd 9a99 1abd 6261 9cbc
000001f0: 7a64 31bd 9757 f0bb 9a04 c63b ed10 d638
00000200: abf9 7ebd c059 9fbc f7d9 d93a d962 3e3c
00000210: 19a8 8dbb 0667 b53c c97c 2c3d 6695 ccbb
00000220: af3a c93b 55b9 56bc 7d14 c9bc bd85 78bc
00000230: 14db 17bc 5761 36bc ab8b 47bd 695b 41bd
00000240: 6144 15bd 893f cbba 4c4f 8ebc eb42 52bb
00000250: a76a b8bc 1ead 73bc d57d ab3c f2cd 42bd
00000260: 986d 9b3b 0f0f 31bd a78e 09bd 8a5d 6bbc
00000270: 6788 d4bc 4afa 13bc 492d d138 68b2 c23c
00000280: e494 533d 4d12 1b3d d936 0e3d f645 9dbc
00000290: e854 1f3c bf10 87bd e575 72bd 9734 bd3b
000002a0: 7fa2 0dbd 4afa 0abd b080 efbc 07ee 5dbd
000002b0: 2874 a2bc 1e98 733c 2354 3dbc 72cb 3d3d
000002c0: 6357 563c eac1 6cbc 3671 ce3b 5132 413d
000002d0: b5ec 1abd 00bd 46bd 4bdc ea3b 60d2 a33a
000002e0: 0a7d 6bbc e09e 3cbd f260 e3bc dad8 533d
000002f0: be54 b23c 35f0 e93b 34f8 12bb 96af b53a
00000300: fc82 31bd 453b 8cbd 1967 feba 011a ff3c
00000310: a13c 86bd a3db 673c 163a 94bb 5aa3 c8bc
00000320: 1692 4abc db60 b33c 4455 33bd c61c 28bd
00000330: 7b59 0abd c8c2 51bd fdec 5abc 68e2 f9bc
00000340: d611 80bd 3e61 70bd 66b9 8cbc 153f 73bb
00000350: 9ee1 e6bc 7010 cdbc bafb aa3c c22f 4b3d
00000360: 1cba 963c 0634 06bd ef49 87bc a3d1 003d
00000370: a21e ccbc b52d 5cbd 091c ffbc c2fd 1e3b
00000380: b280 a0bc f3e9 b9bc 535f bfba 3631 88bd
00000390: 0d9b 51bb 2abb d93b 9a53 6ebd 8af1 db3c
000003a0: 978d 303c 7bb0 72bd a33b 5f3c 7786 fcbc
000003b0: 4c6a a5bc 3ac5 7ebb e10e 263d bea9 b6bb
000003c0: eac2 6c3c a558 e23c 481b c83a afc3 07bd
000003d0: 0f3a 9bbc 6e7f 0abb 2813 263b 3640 e63c
000003e0: fc1f e53c 9f34 0ebd 8bec d73c 8727 173d
000003f0: 80c0 063b fe22 d6bb dfc6 283d 7ed4 043d

stem_1.bias f4 [16]
0.03459749 -0.035227254 0.043328173 0.008664744 -0.0889911 -0.022401763 -0.019382281 -0.014492375
-0.022001795 0.028284704 -0.010659856 0.030067205 0.01117187 -0.03324299 0.005722252 0.027665587
00000000: 19b6 0d3d 744a 10bd e278 313d 92f6 0d3c
00000010: f740 b6bd e783 b7bc 97c7 9ebc 6d71 6dbc
00000020: 1c3d b4bc 53b5 e73c ada6 2ebc 804f f63c
00000030: 380a 373c cd29 08bd bb81 bb3b f1a2 e23c
