Model/weights/AFT.pth (torch, 36023 bytes, 8 tensors)

input.0.weight f4 [8, 3, 3, 3, 3]
0.019465994 0.09432603 0.019484837 0.08895092 -0.11229455 0.10223644 -0.015655857 0.081010185
-0.07058239 -0.034998316 -0.04967962 -0.022445591 0.018672274 -0.072612055 0.024124485 0.05847325
0.10623001 -0.10018809 0.040182974 -0.07179469 0.04358918 -0.03611849 0.015742322 0.0020152465
-0.051474933 0.06697928 -0.056645367 -0.012504301 -0.0884173 -0.08058235 -0.044520196 -0.05236302
0.0026687372 0.03079575 0.03340393 0.047032997 -0.020429667 -0.028358007 -0.027493158 -0.06413106
-0.08771488 0.05039045 -0.019198047 0.02247009 -0.03434477 -0.032308474 -0.0693426 -0.011233922
0.104276285 0.05210994 0.09893953 0.04604387 -0.09737745 -0.07691343 0.05659565 0.05803885
-0.001074673 0.006462131 -0.05836112 -0.0677043 -0.08717006 -0.045706797 0.15380897 -0.15973282
-0.10645647 -0.008265632 -0.0071815844 -0.07671185 -0.036204673 0.006933761 -0.014491037 0.102241516
0.015614686 0.07498034 -0.056453347 0.004595451 0.00949234 0.01068565 -0.12068005 -0.084785834
-0.033701874 0.03443374 0.04388772 -0.033730906 -0.031620692 -0.027867239 0.01000615 -0.054566547
0.0029588211 0.01546585 0.09414637 0.02511938 0.061515886 -0.04058093 -0.096161895 0.026243461
0.029665101 0.05289437 -0.0010614512 -0.107945435 -0.021984955 0.05195573 0.07059035 -0.0016049867
0.07673272 -0.13032117 0.026845139 -0.028553853 -0.03628701 -0.0129020205 0.022981416 0.082009524
-0.07245177 -0.07199453 -0.012692905 0.07227768 0.05864881 -0.106100276 -0.09221207 -0.009037044
0.019179517 -0.09723027 -0.07676483 -0.04986703 0.07981429 0.060685772 -0.007164877 -0.060488224
0.055268977 0.03322313 0.04218 0.07989334 -0.01611896 -0.03249889 -0.00232289 -0.07916035
0.09336716 -0.076196484 0.0077382238 0.05716426 0.028049648 -0.023160309 0.0047238814 0.026553415
-0.011072349 -0.018623143 -0.028660959 0.12452054 -0.10236578 -0.006988877 -0.112512946 -0.049590472
0.10154274 0.015422319 0.036708057 0.06579522 0.087795146 0.071972445 -0.0063146525 -0.011392527
0.051380467 -0.0044478453 0.08743759 0.01966368 0.079914436 -0.1250523 0.10246329 -0.052136984
-0.09346654 -0.049618244 -0.009675587 0.015279432 0.086477876 0.05903542 0.058952257 0.08839784
0.13024743 -0.0683167 0.08597483 -0.11562638 0.049568336 -0.13399859 0.000662937 -0.10450191
0.045879085 0.057321064 0.087242365 -0.04708956 -0.07201286 0.01740083 0.029338611 0.0024445825
-0.025363203 0.012434894 0.05487948 -0.054827984 -0.069174945 -0.03598049 -0.05824595 0.07951672
0.06859307 -0.07741731 0.12522186 0.13737111 -0.060911592 0.052051093 0.040175747 0.04881199
-0.07524849 -0.029045193 0.07024154 0.0019305437 -0.03545744 0.0657659 0.02610649 -0.064120226
0.046399828 -0.13863385 0.009375899 -0.05080265 -0.027915534 0.0047113067 0.026932405 0.011909319
0.020572474 -0.05736909 0.07529249 0.11209468 0.09888673 -0.08695255 0.016169088 -0.0710239
0.026007023 0.034299437 -0.11175999 -0.09753904 0.06933235 -0.059059873 0.05679476 0.06974502
0.022234347 -0.021279696 -0.03324824 0.023369735 -0.09573587 -0.08697513 0.032403294 0.06013232
0.065243505 -0.020873478 -0.10915758 0.073324606 0.100547604 0.07891877 -0.036279898 -0.054118615
00000000: 2677 9f3c 012e c13d aa9e 9f3c e62b b63d
00000010: affa e5bd 5761 d13d b640 80bc abe8 a53d
00000020: 808d 90bd 655a 0fbd db7c 4bbd d1df b7bc
00000030: 99f6 983c a1b5 94bd b6a0 c53c a681 6f3d
00000040: 1f8f d93d 6a2f cdbd e796 243d 1809 93bd
00000050: 918a 323d fbf0 13bd 0bf6 803c 3a12 043b
00000060: 61d7 52bd 6f2c 893d f904 68bd d7de 4cbc
00000070: 2114 b5bd 5c08 a5bd cf5a 36bd 9b7a 56bd
00000080: fbe5 2e3b 5e47 fc3c 8fd2 083d aca5 403d
00000090: 1e5c a7bc 0d4f e8bc 5539 e1bc 2557 83bd
000000a0: dca3 b3bd 3766 4e3d 3945 9dbc 3213 b83c
000000b0: 1aad 0cbd e455 04bd 7e03 8ebd 7c0e 38bc
000000c0: ce8e d53d 3c71 553d cfa0 ca3d 7f98 3c3d
000000d0: d46d c7bd ca84 9dbd d7d0 673d 25ba 6d3d
000000e0: 0bdc 8cba 49c0 d33b 120c 6fbd 8da8 8abd
000000f0: 3786 b2bd 0d37 3bbd 1980 1d3e 0091 23be
00000100: da05 dabd 936c 07bc 7f53 ebbb 1a1b 9dbd
00000110: 5a4b 14bd 9a34 e33b d16b 6dbc 0064 d13d
00000120: bdd4 7f3c 4b8f 993d a03b 67bd 7095 963b
00000130: c285 1b3c dd12 2f3c 1a27 f7bd 32a4 adbd
00000140: fa0a 0abd 650a 0d3d 9cc3 333d 6b29 0abd
00000150: b384 01bd d649 e4bc d6f0 233c 2c81 5fbd
00000160: c8e8 413b 7a64 7d3c d0cf c03d 28c7 cd3c
00000170: 15f8 7b3d 3038 26bd 87f0 c4bd 87fc d63c
00000180: 3a04 f33c c4a7 583d 6420 8bba 7f12 ddbd
00000190: cb19 b4bc 88cf 543d ac91 903d 6b5e d2ba
000001a0: 0b26 9d3d ea72 05be 56ea db3c c5e9 e9bc
000001b0: b0a1 14bd ff62 53bc 8643 bc3c 9cf4 a73d
000001c0: 9861 94bd de71 93bd e7f5 4fbc 5206 943d
000001d0: bc39 703d 1a4b d9bd afd9 bcbd 1c10 14bc
000001e0: 5d1e 9d3c aa20 c7bd e136 9dbd 5f41 4cbd
000001f0: ad75 a33d a591 783d 58c7 eabb 80c2 77bd
00000200: b961 623d fa14 083d f0c4 2c3d 1f9f a33d
00000210: e90b 84bc 8e1d 05bd a13b 18bb d21e a2bd
00000220: 4837 bf3d e70c 9cbd ed90 fd3b 1225 6a3d
00000230: 60c8 e53c b0ba bdbc caca 9a3b 8c86 d93c
00000240: cc68 35bc 908f 98bc 63ca eabc a004 ff3d
00000250: 26a5 d1bd f302 e5bb 306d e6bd 611f 4bbd
00000260: a4f5 cf3d e5ad 7c3c 305b 163d a5bf 863d
00000270: f1cd b33d 4a66 933d 25eb cebb b9a7 3abc
00000280: 5374 523d 3bbf 91bb 7b12 b33d ba15 a13c
00000290: 2eaa a33d b60d 00be 46d8 d13d 978d 55bd
000002a0: 636b bfbd 803c 4bbd 5a86 1ebc 9556 7a3c
000002b0: 501b b13d 20cf 713d ec77 713d ed09 b53d
000002c0: 955f 053e a0e9 8bbd 9213 b03d 86cd ecbd
000002d0: 2b08 4b3d ed36 09be f3c8 2d3a 1905 d6bd
000002e0: b5eb 3b3d 7ec9 6a3d 20ac b23d fce0 40bd
000002f0: 7a7b 93bd 2f8c 8e3c 8757 f03c 4a35 203b
00000300: 7ec6 cfbc babb 4b3c 4ec9 603d 4f93 60bd
00000310: 98ab 8dbd 4760 13bd 4e93 6ebd a9d9 a23d
00000320: 867a 8c3d f78c 9ebd 293a 003e 03ab 0c3e
00000330: 6f7e 79bd 8733 553d 538f 243d 15ef 473d
00000340: e11b 9abd 2ff0 edbc ccda 8f3d 4c0a fd3a
00000350: d23b 11bd 46b0 863d 47dd d53c 7751 83bd
00000360: bf0d 3e3d 08f6 0dbe 5f9d 193c 7116 50bd
00000370: 1eaf e4bc 4e61 9a3b 59a1 dc3c 4e1f 433c
00000380: 9b87 a83c dafb 6abd f332 9a3d e591 e53d
00000390: 2085 ca3d 2e14 b2bd 0975 843c fa74 91bd
000003a0: ae0c d53c 917d 0c3d 6ce2 e4bd 8cc2 c7bd
000003b0: 1efe 8d3d c4e8 71bd 9fa1 683d 7ad6 8e3d
000003c0: ce24 b63c c252 aebc 4e2f 08bd e371 bf3c
000003d0: 2b11 c4bd 0420 b2bd 51b9 043d 4f4d 763d
000003e0: 639e 853d dbfe aabc 028e dfbd 362b 963d
000003f0: e7eb cd3d 2aa0 a13d 3b9a 14bd 7bab 5dbd

input.0.bias f4 [8]
-0.13614187 0.06511349 -0.11834349 0.2706 0.042676277 0.18656217 0.13766693 0.08364587
00000000: c668 0bbe 395a 853d 125e f2bd 158c 8a3e
00000010: 52cd 2e3d 270a 3f3e 8ff8 0c3e 874e ab3d

l1.0.weight f4 [16, 8, 3, 3, 3]
-0.009228582 -0.0499561 -0.025364252 0.01891123 0.028430646 -0.0341332 0.08522548 0.10724286
0.10350341 -0.042351156 -0.031011177 -0.07137641 -0.0611579 0.06912783 0.035270907 0.073183045
0.07262421 0.06453663 -0.08667753 -0.09541089 -0.026582263 -0.005015031 0.053474154 0.022856444
0.04895564 0.017303335 0.02079772 0.0684765 -0.024079785 0.03936289 -0.02621268 0.013811814
-0.0069243102 -0.0032565368 0.092572175 -0.045766048 -0.06665746 -0.03404689 -0.013614779 -0.011547912
0.019416392 -0.068452865 0.04963051 -0.07876604 0.02828356 -0.08704921 -0.051519517 0.022742039
-0.0032487074 0.039185133 -0.0005765062 0.040187854 -0.051304523 -0.0037713067 0.003146174 0.00080457114
0.036130812 -0.025637848 0.020759437 0.07941289 0.033980735 -0.02637333 -0.028190091 -0.043052822
0.05516446 0.036832307 0.009516923 -0.032055724 -0.018551065 0.006280282 0.013423675 0.08216159
-0.026699001 -0.03969161 0.016330943 0.05481691 -0.022888787 0.052025802 0.03139295 0.021387504
0.019410836 0.08805187 0.054026406 -0.0062296973 0.0025712235 -0.053043913 -0.055678908 -0.08801863
-0.009392008 -0.05106664 0.06381049 0.018387182 0.017354108 0.073317625 0.046658233 0.02637105
0.017586622 -0.07566104 0.02148542 -0.0816163 -0.00633185 -0.049504533 0.0042657913 -0.020233449
0.044103608 -0.008687772 0.050165914 -0.0020036523 0.08331303 -0.012890947 -0.01749131 -0.019206539
0.033592634 0.027298773 -0.03431298 -0.0020489818 0.00042547693 0.05703325 0.07441799 -0.039180085
-0.01901973 -0.015361697 0.07525589 0.058841363 0.048092466 -0.068630464 0.0155411875 0.04308833
-0.013277954 0.023404421 0.026837235 0.06634062 -0.055162013 -0.017747648 -0.11973904 0.029456377
-0.008633304 0.10204146 -0.04488554 -0.057994567 0.017483024 0.05811556 0.10756345 0.061585613
-0.056401078 -0.036370818 -0.0041676234 0.0062339744 -0.027134752 -0.02932471 -0.026736923 -0.025568755
0.042338327 0.050135147 0.09568468 -0.040273525 -0.045977145 -0.076204486 -0.027165553 -0.038727466
-0.0023929898 0.015756583 -0.030616878 -0.04898093 -0.0541215 0.03648813 0.013666928 -0.02939395
0.048200555 0.007788825 -0.034569893 0.015066636 0.09020422 0.028513031 -0.038901597 0.05337183
0.049871657 -0.054657042 -0.009206144 -0.052173145 0.06510206 0.07095115 -0.057857312 -0.05323608
0.04269541 -0.0077534365 0.04001417 -0.05858596 0.004285743 0.055460982 -0.01794207 -0.026657563
-0.036793415 0.0021566737 0.012626572 -0.020895075 0.04812544 -0.021410018 0.045377534 -0.06541489
-0.03594236 0.036941167 -0.07980323 0.016604584 0.015568922 -0.0479941 0.051562108 0.12141649
0.01222308 0.018082215 -0.0024308912 -0.0056459983 0.08092079 0.026040692 0.0044648084 0.024978902
-0.047222234 0.021112284 0.0770271 0.057845753 -0.04485646 0.034935847 -0.058826856 -0.037433624
0.00028714017 -0.011813512 -0.02453117 -0.012589986 -0.034039326 0.06256244 0.004759444 -0.06413175
-0.018025314 0.04786098 -0.046259675 -0.006019308 -0.03199915 0.06010833 -0.0066028275 0.00023024589
0.07527199 -0.0058453484 -0.041876994 -0.002263861 0.053100694 -0.02016052 -0.016622901 0.05102576
0.09505868 -0.006807237 -0.0024474305 -0.034651242 -0.014122153 0.056666452 -0.008890889 -0.037465442
00000000: 7a33 17bc c49e 4cbd b1c8 cfbc b9eb 9a3c
00000010: 63e7 e83c 41cf 0bbd b28a ae3d 25a2 db3d
00000020: 99f9 d33d 6878 2dbd 270b febc cc2d 92bd
00000030: b580 7abd e492 8d3d 3a78 103d fee0 953d
00000040: 00bc 943d c82b 843d fd83 b1bd c966 c3bd
00000050: 0cc3 d9bc 2155 a4bb b707 5b3d 703d bb3c
00000060: b685 483d b9bf 8d3c fb5f aa3c 683d 8c3d
00000070: f842 c5bc fb3a 213d f9bb d6bc f24a 623c
00000080: 53e5 e2bb 9f6b 55bb 7b96 bd3d 2e75 3bbd
00000090: b583 88bd c074 0bbd 8610 5fbc 7433 3dbc
000000a0: 200f 9f3c 0431 8cbd 5d49 4b3d 1750 a1bd
000000b0: edb2 e73c db46 b2bd 2106 53bd 834d ba3c
000000c0: 44e8 54bb 9780 203d ad20 17ba 059c 243d
000000d0: b124 52bd 0728 77bb 0a30 4e3b dbe9 523a
000000e0: e7fd 133d 7706 d2bc b20f aa3c 3aa3 a23d
000000f0: 622f 0b3d e20c d8bc e8ee e6bc 2858 30bd
00000100: 21f4 613d 79dd 163d deec 1b3c dd4c 03bd
00000110: 67f8 97bc d3ca cd3b f9ee 5b3c 5644 a83d
00000120: ddb7 dabc ab93 22bd 78c8 853c b287 603d
00000130: 4481 bbbc 0219 553d e595 003d d934 af3c
00000140: 7903 9f3c 8a54 b43d cb4a 5d3d 7d22 ccbb
00000150: f981 283b 9344 59bd 910f 64bd 1d43 b4bd
00000160: f0e0 19bc 412b 51bd 13af 823d b7a0 963c
00000170: 342a 8e3c 8d27 963d b41c 3f3d 1a08 d83c
00000180: d211 903c 2df4 9abd 3102 b03c 7226 a7bd
00000190: 687b cfbb 44c5 4abd 0dc8 8b3b 9ec0 a5bc
000001a0: fca5 343d 2857 0ebc c67a 4d3d b54f 03bb
000001b0: 06a0 aa3d 8d34 53bc f049 8fbc 0857 9dbc
000001c0: 6e98 093d ada1 df3c c48b 0cbd 3648 06bb
000001d0: 8c12 df39 b29b 693d 7668 983d 4c7b 20bd
000001e0: 44cf 9bbc a1af 7bbc c31f 9a3d a403 713d
000001f0: 9bfc 443d 218e 8cbd 77a0 7e3c 647d 303d
00000200: c78b 59bc a1ba bf3c c3d9 db3c 97dd 873d
00000210: 90f1 61bd 8463 91bc be39 f5bd 804e f13c
00000220: b472 0dbc 1dfb d03d e6d9 37bd b68b 6dbd
00000230: 8f38 8f3c 950a 6e3d 3a4a dc3d 3241 7c3d
00000240: d104 67bd 91f9 14bd 8f90 88bb 5e46 cc3b
00000250: b349 debc 603a f0bc 6407 dbbc 9175 d1bc
00000260: f46a 2d3d 835a 4d3d 54f6 c33d daf5 24bd
00000270: 8852 3cbd 1911 9cbd 4b8a debc b1a0 1ebd
00000280: b5d3 1cbb f313 813c 3fd0 fabc 3aa0 48bd
00000290: 82ae 5dbd 9474 153d 40eb 5f3c 95cb f0bc
000002a0: f26d 453d 6639 ff3b 2999 0dbd 0dda 763c
000002b0: fdbc b83d 2994 e93c 4857 1fbd 6c9c 5a3d
000002c0: 3946 4c3d 10e0 5fbd 5ed5 16bc 82b3 55bd
000002d0: 3b54 853d d64e 913d cafb 6cbd 130e 5abd
000002e0: 62e1 2e3d 8a10 febb e6e5 233d d5f7 6fbd
000002f0: 6b6f 8c3b 0e2b 633d 3ffb 92bc f660 dabc
00000300: b1b4 16bd fb56 0d3b aedf 4e3c 262c abbc
00000310: 2e1f 453d 1064 afbc cbdd 393d 3ef8 85bd
00000320: 4c38 13bd 9f4f 173d e06f a3bd 5606 883c
00000330: cb14 7f3c 7695 44bd ca32 533d 35a9 f83d
00000340: 5043 483c 2721 943c 964f 1fbb 1102 b9bb
00000350: cdb9 a53d 4a53 d53c 874d 923b 8ea0 cc3c
00000360: 1a6c 41bd abf3 ac3c 62c0 9d3d abef 6c3d
00000370: 68bb 37bd e418 0f3d 6ef4 70bd 0054 19bd
00000380: 4d8b 9639 768d 41bc 98f5 c8bc 3b46 4ebc
00000390: d26c 0bbd bd20 803d 1cf5 9b3b 8257 83bd
000003a0: d3a9 93bc e009 443d c97a 3dbd 9e3d c5bb
000003b0: 8a11 03bd 2734 763d 885c d8bb 296e 7139
000003c0: 3328 9a3d 568a bfbb 3687 2bbd 495d 14bb
000003d0: 1d80 593d ad27 a5bc c02c 88bc 6300 513d
000003e0: 20ae c23d 3e0f dfbb 1265 20bb 76ee 0dbd
000003f0: 9a60 67bc 151b 683d 17ab 11bc 5d75 19bd

l1.0.bias f4 [16]
-0.063554615 -0.00112589 -0.17826706 0.122077286 -0.011684389 -0.04763151 -0.0480649 -0.14463596
-0.034871053 -0.029926883 0.044742543 0.052295826 -0.04901342 0.039803375 0.13201842 0.062324688
00000000: ec28 82bd 9992 93ba a48b 36be a803 fa3d
00000010: e16f 3fbc 4219 43bd b3df 44bd 731b 14be
00000020: f3d4 0ebd 3929 f5bc f543 373d 2634 563d
00000030: 4cc2 48bd dd08 233d d62f 073e 2c48 7f3d

l2.0.weight f4 [8, 16, 3, 3, 3]
0.012510424 -0.032025903 -0.07002328 -0.02283881 -0.016419357 -0.0237424 0.016934235 0.021067563
0.020800179 -0.0047507323 -0.03002272 0.050401628 0.019545516 0.005764298 0.010810398 0.059489682
0.0047588428 0.024288472 -0.06679624 -0.041625943 0.0021769248 -0.024708312 -0.022227425 -0.012168386
0.048847705 0.052114774 0.018415669 -0.043919824 0.046929203 -0.005948855 0.02124196 0.01876845
-0.012562552 0.026427334 0.017171128 0.049860895 0.045071155 -0.011779742 0.024703585 -0.008735461
0.02718377 0.034524646 -0.0032758594 0.008716799 -0.0414184 -0.034625497 -0.010033196 0.052578986
0.022373062 0.05329227 0.043320242 0.029240457 -0.0213863 -0.019798791 -0.042542726 -0.013323142
0.0067768265 -0.036738575 0.0014787617 0.003180438 0.042912852 0.04768532 0.07873255 0.0026958361
0.0123835495 -0.0028116535 -0.02801863 0.054162882 0.08943782 -0.10825239 0.021545183 0.075695574
-0.01748974 -0.029206956 0.0038478868 -0.058564857 0.004717773 -0.041076895 -0.060674448 -0.06223414
-0.033779908 0.019127654 0.030707944 -0.016867928 -0.034029286 0.01755755 0.01018037 -0.045568068
0.033555876 0.03850757 0.027163533 0.04397616 0.025906967 0.04132508 -0.022689577 0.039671805
-0.049349807 0.009412446 0.01829466 0.032848023 0.0044113407 -0.012499781 -0.009488035 -0.030402225
0.00924142 -0.032953005 -0.015125958 0.04114944 -0.0017045463 0.030012967 -0.029881582 0.03810256
0.02285439 0.018068671 -0.0005812737 0.057029232 -0.05710707 -0.024397884 -0.005534296 0.000991317
0.021126602 -0.05544538 -0.042508665 -0.015802521 -0.0028183702 0.035292126 0.010659292 0.009693677
-0.038123105 0.050067328 0.043884933 0.00912468 0.029070834 0.001328069 0.011082223 -0.04552289
-0.012671036 0.04363207 -0.062052656 -0.008979339 -0.024218215 -0.054269265 0.049470615 -0.015197374
0.026029507 -0.038124736 -0.05821187 -0.008301346 -0.047282465 -0.024094751 0.023899892 -0.0104009975
0.062132314 0.05189583 0.028057288 0.0084773535 -0.011186464 0.030094435 0.016617175 -0.031375665
-0.016779527 -0.034607552 0.008954709 -0.049239967 0.022558864 0.0076673776 -0.0082838535 -0.018170204
-0.06916283 -0.02419081 0.044130076 0.075242 -0.004550026 -0.042019732 -0.010300198 0.004401191
0.011196313 0.04953045 0.0031689666 0.044312924 0.05397155 -0.012647242 0.05241106 0.003764887
0.07451162 0.0753902 -0.0035143152 -0.00025583783 -0.017803697 0.049522955 0.043465227 0.05514734
-0.0036834392 -0.030036869 0.07299194 -0.074257 -0.030214462 -0.053802054 0.020942196 -0.0019034835
0.03770176 0.0071527637 -0.020975849 0.04217414 -0.0483704 -0.061398566 0.0038227234 0.06511705
0.043950886 0.06239594 0.016158512 0.061341655 0.02504201 -0.074248075 -0.01071851 -0.10644283
-0.029616563 -0.045200575 -0.0049827285 -0.061227474 0.024777256 0.019646097 0.018559739 -0.03156257
-0.005083983 -0.0057305614 0.042586103 -0.04731525 -0.021893095 0.08490016 0.07536127 0.039836854
0.0439924 0.06712511 0.0056102467 -0.0277934 -0.005922788 0.0061672325 0.032901563 0.01319577
-0.018692318 0.031040981 0.006153434 0.011502149 -0.016953966 0.0074850647 0.021445373 0.028582567
0.059431467 0.02896614 -0.012524897 -0.033644583 0.087739095 -0.015554467 -0.03392809 0.03539851
00000000: 85f8 4c3c 982d 03bd 5e68 8fbd 7518 bbbc
00000010: e381 86bc 6c7f c2bc aab9 8a3c e295 ac3c
00000020: 2365 aa3c 08ac 9bbb 35f2 f5bc f071 4e3d
00000030: eb1d a03c 70e2 bc3b 181e 313c 74ab 733d
00000040: 11f0 9b3b 9ef8 c63c 78cc 88bd f77f 2abd
00000050: bdaa 0e3b 1669 cabc 4a16 b6bc e95d 47bc
00000060: 8814 483d 4d76 553d 75dc 963c 46e5 33bd
00000070: d638 403d 9dee c2bb 9e03 ae3c 4bc0 993c
00000080: 29d3 4dbc 237e d83c 77aa 8c3c f03a 4c3d
00000090: 889c 383d d2ff 40bc 2c5f ca3c 2e1f 0fbc
000000a0: 7fb0 de3c b769 0d3d cdaf 56bb e8d0 0e3c
000000b0: 57a6 29bd 77d3 0dbd 4662 24bc 105d 573d
000000c0: b647 b73c ff48 5a3d 9170 313d af89 ef3c
000000d0: 5232 afbc 1331 a2bc 4841 2ebd 4f49 5abc
000000e0: 2410 de3b 307b 16bd 02d3 c13a e56e 503b
000000f0: 63c5 2f3d af51 433d 883e a13d a0ac 303b
00000100: 5fe4 4a3c b843 38bb 5387 e5bc e6d9 5d3d
00000110: 2d2b b73d 6eb3 ddbd 867f b03c 4806 9b3d
00000120: a546 8fbc 6d43 efbc d42c 7c3b b4e1 6fbd
00000130: 8c97 9a3b 3f40 28bd c585 78bd 3ae9 7ebd
00000140: cd5c 0abd 99b1 9c3c 3a8f fb3c 9c2e 8abc
00000150: 4b62 0bbd dad4 8f3c 91cb 263c 95a5 3abd
00000160: e371 093d 1dba 1d3d 0f86 de3c 5920 343d
00000170: d93a d43c 7d44 293d 7edf b9bc e77e 223d
00000180: 0623 4abd a936 1a3c afde 953c a68b 063d
00000190: 028d 903b e2cb 4cbc b473 1bbc 160e f9bc
000001a0: 5369 173c bbf9 06bd ded2 77bc 518c 283d
000001b0: 156b dfba c1dd f53c 38ca f4bc 6e11 1c3d
000001c0: 2139 bb3c c004 943c 9e60 18ba 7c97 693d
000001d0: 1ae9 69bd 12de c7bc 0a59 b5bb 14ef 813a
000001e0: b211 ad3c b21a 63bd 911d 2ebd 4a74 81bc
000001f0: 68b4 38bb 7a8e 103d 50a4 2e3c 3ad2 1e3c
00000200: f926 1cbd 6613 4d3d b0c0 333d af7f 153c
00000210: f525 ee3c 9a12 ae3a 3692 353c 3676 3abd
00000220: 2d9a 4fbc 8bb7 323d ed2a 7ebd 141e 13bc
00000230: 4765 c6bc 7349 5ebd b3a1 4a3d 68fe 78bc
00000240: d53b d53c af28 1cbd 926f 6ebd 5e02 08bc
00000250: 42ab 41bd 5b62 c5bc b5c9 c33c f268 2abc
00000260: 747e 7e3d b990 543d 66d8 e53c 99e4 0a3c
00000270: 6e47 37bc 9b88 f63c be20 883c c583 00bd
00000280: 3875 89bc a6c0 0dbd c6b6 123c d9af 49bd
00000290: 5ecd b83c a03e fb3b 00b9 07bc aed9 94bc
000002a0: 3ea5 8dbd ce2b c6bc bdc1 343d 7a18 9a3d
000002b0: 6218 95bb e21c 2cbd 29c2 28bc de37 903b
000002c0: be70 373c 71e0 4a3d 70ae 4f3b 7881 353d
000002d0: 4611 5d3d 6136 4fbc fbac 563d 53bc 763b
000002e0: 8c99 983d 2d66 9a3d 6d50 66bb f921 86b9
000002f0: 0fd9 91bc 95d8 4a3d 9808 323d 2de2 613d
00000300: db65 71bb e10f f6bc cc7c 953d 0e14 98bd
00000310: 5284 f7bc 8b5f 5cbd f88e ab3c 4f7e f9ba
00000320: 296d 1a3d bb61 ea3b 8bd5 abbc cbbe 2c3d
00000330: 0a20 46bd 107d 7bbd a886 7a3b 175c 853d
00000340: d805 343d e392 7f3d db5e 843c 6341 7b3d
00000350: e724 cd3c 600f 98bd b09c 2fbc b3fe d9bd
00000360: 6f9e f2bc 3d24 39bd 2846 a3bb a9c9 7abd
00000370: acf9 ca3c daf0 a03c 980a 983c c147 01bd
00000380: 8a97 a6bb 6fc7 bbbb c46e 2e3d a3cd 41bd
00000390: 2659 b3bc 23e0 ad3d 0257 9a3d f82b 233d
000003a0: 6031 343d e478 893d 29d6 b73b fcae e3bc
000003b0: f213 c2bb 7f16 ca3b cac3 063d 1233 583c
000003c0: a220 99bc a849 fe3c bfa2 c93b 8273 3c3c
000003d0: 0be3 8abc 4645 f53b 35ae af3c fd25 ea3c
000003e0: 696e 733d 664a ed3c 3a35 4dbc e7ce 09bd
000003f0: 8eb0 b33d 2ad8 7ebc 2ef8 0abd 07fe 103d

l2.0.bias f4 [8]
0.0069589377 0.008419213 -0.041031092 -0.103339784 0.05672685 -0.13069576 -0.03480682 -0.04474843
00000000: cd07 e43b bdf0 093c 3810 28bd cfa3 d3bd
00000010: 6a5a 683d 1cd5 05be 9991 0ebd 214a 37bd

l3.0.weight f4 [3, 8, 3, 3, 3]
-0.019359661 0.028547771 -0.019746525 -0.03163423 0.048881974 -0.004808156 0.01745052 -0.03852412
0.040786333 -0.068586156 0.076450445 0.03580113 0.031094188 -0.05175904 -0.034450635 -0.0016283958
-0.02651145 -0.055527598 -0.018289896 -0.011962484 0.037652683 -0.0005059445 -0.04682742 0.020392181
0.043553494 0.07171103 0.013152995 -0.00533285 0.06482386 -0.046174593 -0.003823833 -0.02366842
-0.037217274 0.06658266 0.0044534286 0.0045336285 0.002303311 -0.015141332 0.0106431395 0.0355706
-0.05173736 0.0072029913 0.053031564 0.057958953 0.04072631 0.03798381 -0.008495305 -0.052351713
-0.013093789 -0.03252692 0.069602534 0.014236424 0.039822243 -0.05282822 -0.05584853 -0.031195061
0.05666019 0.058178592 0.040604174 -0.052923054 -0.02697516 -0.031744696 0.034754615 -0.044702597
0.055180065 -0.04733721 0.059095677 -0.025994271 0.047392868 0.028110914 0.038939405 0.028675934
-0.0045597553 0.026716657 -0.02552772 -0.0051860465 0.047027837 -0.01909434 0.051934853 0.041405078
0.019441905 0.062712386 -0.04679361 0.09262476 -0.0784494 -0.030537188 0.0151445875 0.024802003
-0.041416913 -0.04289699 -0.013982891 0.0070306524 -0.020102922 0.04227116 -0.017276527 0.031222677
0.0053552454 0.06940429 0.056947425 0.05352728 -0.06903779 -0.057789072 -0.021484872 0.034441054
0.07437143 -0.005392243 -0.045622353 0.014973068 0.005334342 -0.033799592 -0.066979334 0.06017569
0.026820354 -0.015712712 -0.035793494 0.039071042 -0.036710594 -0.08508769 -0.07841013 -0.025703393
0.017096976 -0.042551078 -0.04077706 0.016141234 -0.114148445 -0.07201153 0.018417051 0.0047105495
0.060037673 -0.015162856 -0.010082192 -0.06397459 0.027847696 -0.033439856 0.002972276 -0.01538356
0.059990205 0.009676164 -0.04702698 0.0854325 -0.05798601 0.0046869596 -0.0208705 0.043854352
-0.056513824 -0.05631459 0.07222728 -0.07606725 0.017987382 0.039724328 -0.050540805 -0.044395857
0.050106652 -0.05177364 -0.09387967 0.07110834 -0.046290986 -0.099701926 0.07262694 -0.041288227
-0.05821771 0.0041198414 0.06108676 -0.00090411445 0.045726974 0.027604386 -0.059998907 0.039024003
0.06277067 0.022655504 0.004636487 -0.034095235 0.00674573 0.062096797 -0.053364344 -0.008606166
0.013311371 -0.009026067 -0.004648617 -0.028095165 0.0025902723 0.051899415 0.014121218 0.004815969
0.046258535 -0.0014312945 -0.0013271787 -0.020044664 -0.035281666 -0.004400469 0.013517652 0.027443081
-0.028640147 0.03085435 -0.039434437 -0.04779817 -0.010878817 -0.0028234143 -0.035555996 -0.0065992526
-0.022983002 -0.03228994 0.030300343 -0.007243351 -0.013212457 -0.027683584 0.05612991 -0.033177305
0.10612323 0.05715842 0.036384914 0.12457291 -0.031897098 -0.034003563 0.010665388 -0.067499824
-0.041947257 -0.058760542 -0.011198883 0.088231444 0.029091597 0.044043936 0.0020998635 0.005967119
0.012088572 -0.00029733166 -0.0029648168 0.021917403 -0.01544793 -0.046207897 -0.01695886 -0.020677507
-0.044908803 0.03302665 -0.028012605 -0.037705507 -0.017116537 -0.029040584 -0.027322326 -0.005240358
-0.007144858 -0.0035679664 -0.030570162 0.026173746 0.01649465 -0.0063021714 0.04049794 0.022246303
0.022433698 0.058586903 0.03577853 -0.015377219 0.04118629 0.039203145 0.041592985 -0.02190812
00000000: 2798 9ebc 04dd e93c 77c3 a1bc e592 01bd
00000010: 7738 483d bc8d 9dbb 65f4 8e3c 78cb 1dbd
00000020: 920f 273d e676 8cbd 0d92 9c3d 35a4 123d
00000030: 3db9 fe3c 4a01 54bd 1c1c 0dbd e56f d5ba
00000040: 8a2e d9bc e870 63bd b1d4 95bc 4bfe 43bc
00000050: b339 1a3d 5ca1 04ba 1cce 3fbd 810d a73c
00000060: 2665 323d 3cdd 923d a97f 573c 30bf aebb
00000070: 5fc2 843d 9221 3dbd 4699 7abb 46e4 c1bc
00000080: 2471 18bd 7d5c 883d 11ee 913b d58e 943b
00000090: 25f3 163b 5913 78bc 9060 2e3c 7ab2 113d
000000a0: 8eea 53bd 1207 ec3b a037 593d 5e66 6d3d
000000b0: a2d0 263d e994 1b3d e42f 0bbc c06e 56bd
000000c0: 5587 56bc f33a 05bd c68b 8e3d e43f 693c
000000d0: a61c 233d 6762 58bd 6ec1 64bd c98c ffbc
000000e0: 8414 683d ad4c 6e3d 9050 263d d8c5 58bd
000000f0: 03fb dcbc ba06 02bd db5a 0e3d 121a 37bd
00000100: 7e04 623d aae4 41bd 4f0e 723d f0f1 d4bc
00000110: 061f 423d dc48 e63c ed7e 1f3d cbe9 ea3c
00000120: 006a 95bb e4dc da3c 821f d1bc b6ef a9bb
00000130: 43a0 403d bc6b 9cbc a4b9 543d 5f98 293d
00000140: a144 9f3c 5a6f 803d a8aa 3fbd 0db2 bd3d
00000150: 14aa a0bd 2029 fabc 0121 783c 922d cb3c
00000160: c8a4 29bd c1b4 2fbd 7f18 65bc 6361 e63b
00000170: e2ae a4bc 8624 2d3d 8187 8dbc b3c6 ff3c
00000180: 0e7b af3b d623 8e3d b441 693d 6c3f 5b3d
00000190: af63 8dbd 3cb4 6cbd 0b01 b0bc 1012 0d3d
000001a0: 0c50 983d 6ab1 b0bb 81de 3abd 9951 753c
000001b0: b4cb ae3b 7171 0abd 762c 89bd c97a 763d
000001c0: 5cb6 db3c f2b7 80bc 339c 12bd f508 203d
000001d0: d95d 16bd 7442 aebd 7e95 a0bd ec8f d2bc
000001e0: f50e 8c3c 0a4a 2ebd d905 27bd 9f3a 843c
000001f0: a9c6 e9bd c87a 93bd 5bdf 963c f45a 9a3b
00000200: 10ea 753d a16d 78bc c72f 25bc 1c05 83bd
00000210: da20 e43c 3bf8 08bd 84ca 423b 540b 7cbc
00000220: 4ab8 753d c688 1e3c 5d9f 40bd 3cf7 ae3d
00000230: bd82 6dbd 1195 993b 9cf8 aabc 9fa0 333d
00000240: 0a7b 67bd 21aa 66bd e5eb 933d 25c9 9bbd
00000250: 465a 933c fab5 223d e003 4fbd 6ed8 35bd
00000260: a23c 4d3d 9910 54bd fc43 c0bd 40a1 913d
00000270: 9e9b 3dbd 8630 ccbd 6fbd 943d d81d 29bd
00000280: b275 6ebd bcff 863b 1c36 7a3d 1802 6dba
00000290: 354c 3b3d 9822 e23c 6ac1 75bd a2d7 1f3d
000002a0: e98d 803d 0998 b93c aced 973b 72a7 0bbd
000002b0: 490b dd3b 3659 7e3d 9294 5abd e000 0dbc
000002c0: f017 5a3c 12e2 13bc 6d53 98bb d527 e6bc
000002d0: 8fc1 293b 7b94 543d ae5c 673c 47cf 9d3b
000002e0: 9779 3d3d 469a bbba baf4 adba b534 a4bc
000002f0: 8283 10bd cf31 90bb 2479 5d3c 50d0 e03c
00000300: be9e eabc 43c2 fc3c 0186 21bd 04c8 43bd
00000310: 113d 32bc 0809 39bb 2aa3 11bd 8b3e d8bb
00000320: d946 bcbc 7542 04bd 6d38 f83c a259 edbb
00000330: 1079 58bc afc8 e2bc 7ae8 653d ede4 07bd
00000340: 2357 d93d f31e 6a3d 5908 153d 1520 ff3d
00000350: 88a6 02bd 5247 0bbd e1bd 2e3c 593d 8abd
00000360: e3d0 2bbd e5ae 70bd 857b 37bc b0b2 b43d
00000370: 8051 ee3c 6a67 343d dd9d 093b d287 c33b
00000380: 250f 463c 2ee3 9bb9 5f4d 42bb 208c b33c
00000390: 5119 7dbc 7e44 3dbd 4fed 8abc e063 a9bc
000003a0: 4bf2 37bd f446 073d b17a e5bc 1771 1abd
000003b0: fb37 8cbc 85e6 edbc 12d3 dfbc 4fb7 abbb
000003c0: 6a1f eabb 8bd4 69bb 476e fabc 536a d63c
000003d0: ca1f 873c 7282 cebb 2be1 253d e13d b63c
000003e0: e0c6 b73c d2f8 6f3d 828c 123d bbf0 7bbc
000003f0: f5b2 283d 7a93 203d 685d 2a3d a878 b3bc

l3.0.bias f4 [3]
0.031881675 0.07634327 -0.086921036
00000000: 5c96 023d dc59 9c3d a803 b2bd
